Results/GE/DeepRL; BEGIN_DATE(None); END_DATE(None); SPLIT_POINT(2015-01-01); BATCH_SIZE16; GAMMA0.9; REPLAY_MEMORY_SIZE32; TARGET_UPDATE5; N_STEP8/model.pkl (torch, 148533 bytes, 14 tensors)

policy_network.0.weight f4 [128, 4]
-0.699326 1.1317346 -1.2524465 -0.11046889 -0.814726 0.90828645 -0.73359245 0.17622098
-0.0969143 -0.7271547 0.98769903 0.26124376 -0.46132794 0.81261235 -0.52161306 -0.26226097
-0.13960339 0.8565617 -0.9973039 0.7486967 -0.28934538 -0.26518425 -0.22147788 -1.4321728
-0.4269344 1.0744894 -1.2926437 -0.34136942 0.4781182 -1.0183686 1.7090888 -0.44828868
-0.6560005 0.93468577 -1.1556903 -0.61713845 0.8547736 -1.0866798 1.3517491 -0.18121852
-0.9801439 0.32392782 -0.24008222 0.8251229 -0.7435591 2.3040824 -0.51552784 -0.37140983
-0.43358353 1.326688 -0.7610883 -0.8211706 -0.919486 1.046066 -0.39219922 0.50436777
0.64460796 -0.5405484 0.81347764 -1.2360511 -0.8035265 2.9343903 0.25117534 0.098673016
0.8704099 1.2443416 -0.27378792 -0.72224396 -0.039743498 -1.9754711 0.17000061 -0.7918501
0.22007169 -0.8658189 0.9663733 0.69542 -0.2979516 1.2243463 0.5021327 1.4449497
-1.0053263 1.5260999 -0.46844465 0.36931115 0.41347635 -0.87389404 0.5562226 -1.494351
-1.1051496 1.2518215 -0.73171735 0.65665585 -0.43591428 0.9136973 -0.65329075 -0.68808806
0.3199517 -0.8001658 0.5025815 0.54989904 -0.65047973 0.88118356 -1.3419528 0.37726524
0.941042 -0.6415596 0.2911279 -1.1282432 0.10185653 0.72578806 -1.0290002 -0.8133006
0.819401 0.40086216 -0.6805131 -0.22207534 0.36371446 -0.8424433 0.82780176 0.46024147
-0.52713156 -0.78745407 0.90974045 -0.003599679 -0.4560574 1.2203691 -1.2503482 -0.41554934
0.44237745 -0.88410234 0.74584615 0.6420519 0.9380391 -0.8693829 0.62188697 -0.34465924
0.05789346 2.0972822 1.3428816 -0.20268656 -0.33315852 0.86603224 -0.78257877 -0.58533293
-0.26259762 0.0029989034 1.4053854 0.9811116 1.134395 -1.0932574 1.0426883 -0.15084282
0.59125113 -0.86990505 -0.533244 -1.7148701 -0.24927898 -0.42655677 -0.52685875 -1.2401204
-0.46707124 0.70048994 -0.31207502 -0.30487928 0.368882 0.75553375 -1.2363151 0.5382879
0.3250669 -0.7961611 -0.45238495 -0.2323418 0.5230136 -0.87018645 0.80289173 0.346683
-0.8377816 0.92150563 -1.1296233 0.1085926 0.09443512 -0.34156296 -0.32464972 -2.0693483
0.38960302 -0.7860348 1.7218988 -0.34551162 1.092941 -0.4661334 0.19299768 -0.638302
-0.24064061 0.7616871 -0.4075445 1.7775363 0.5937632 -0.82847476 0.40306085 -1.5717373
0.468074 0.6489539 -0.9481467 0.16542685 0.69273204 0.89151293 -0.7123233 -0.49115008
-0.69056547 1.0562296 -0.89498705 -0.31811684 0.6638078 -0.5587211 0.6380784 -1.2900758
0.21510811 0.008460469 0.4603223 1.3121206 0.43408576 -0.8932922 0.48265687 -1.5455962
-0.20576797 0.5801743 -0.63287085 -0.7844539 1.0898591 -1.24594 0.80470324 0.004037445
0.35490394 -0.21800725 -1.063362 -1.4395361 0.7678946 -0.8618406 0.93007654 -0.8499749
-0.4028893 1.4327892 -0.97782034 0.17005686 0.7677607 -1.0972848 0.853394 -0.45776004
-0.26791835 0.9493049 -0.010033239 -0.05348562 -0.3961178 0.92236567 -0.4565953 1.689096
00000000: 0707 33bf aedc 903f 2b50 a0bf 833d e2bd
00000010: e291 50bf 7685 683f b7cc 3bbf 4673 343e
00000020: 017b c6bd cf26 3abf d8d9 7c3f bec1 853e
00000030: 2d33 ecbe 5d07 503f 6f88 05bf 1247 86be
00000040: 31f4 0ebe a147 5b3f 4f4f 7fbf 96aa 3f3f
00000050: 1425 94be 3bc6 87be 19cb 62be 7051 b7bf
00000060: 2597 dabe de88 893f 5975 a5bf f9c7 aebe
00000070: e9cb f43e e759 82bf 6cc3 da3f 1886 e5be
00000080: a6ef 27bf 9147 6f3f a9ed 93bf c9fc 1dbf
00000090: 71d2 5a3f 5318 8bbf 1d06 ad3f 5991 39be
000000a0: b6ea 7abf ded9 a53e 1dd8 75be 413b 533f
000000b0: e459 3ebf 1676 1340 a2f9 03bf 6e29 bebe
000000c0: a9fe ddbe ead0 a93f afd6 42bf 3d38 52bf
000000d0: 6f63 6bbf 7ee5 853f 56ce c8be 3f1e 013f
000000e0: 0705 253f 6161 0abf 1240 503f ec36 9ebf
000000f0: eab3 4dbf 0dcd 3b40 0e9a 803e 1415 ca3d
00000100: 2fd3 5e3f 9646 9f3f ee2d 8cbe fbe4 38bf
00000110: 14ca 22bd 3ddc fcbf a414 2e3e b0b6 4abf
00000120: 795a 613e 4fa6 5dbf 3e64 773f 0c07 323f
00000130: 1d8d 98be 61b7 9c3f c58b 003f 1df4 b83f
00000140: 88ae 80bf 3e57 c33f fad7 efbe 5a16 bd3e
00000150: 2cb3 d33e 85b7 5fbf 9b64 0e3f e546 bfbf
00000160: 8b75 8dbf b03b a03f d451 3bbf 991a 283f
00000170: 2830 dfbe 11e8 693f 103e 27bf 8a26 30bf
00000180: b6d0 a33e aad7 4cbf 2ea9 003f 2fc6 0c3f
00000190: d785 26bf 3f95 613f 1cc5 abbf e928 c13e
000001a0: 21e8 703f 403d 24bf b70e 953e 466a 90bf
000001b0: 289a d03d 3fcd 393f 47b6 83bf 7834 50bf
000001c0: 44c4 513f ce3d cd3e 1b36 2ebf b867 63be
000001d0: c838 ba3e 5daa 57bf d1ea 533f c5a4 eb3e
000001e0: 18f2 06bf 9796 49bf c0e4 683f 98e8 6bbb
000001f0: 5b80 e9be 0e35 9c3f 690b a0bf e2c2 d4be
00000200: 4c7f e23e 8854 62bf c6ef 3e3f 835d 243f
00000210: 5523 703f e18f 5ebf fc33 1f3f 2d77 b0be
00000220: b121 6d3d df39 0640 8be3 ab3f 118d 4fbe
00000230: c193 aabe 4ab4 5d3f 1557 48bf 61d8 15bf
00000240: 3273 86be 4089 443b abe3 b33f 212a 7b3f
00000250: db33 913f dcef 8bbf cf76 853f 8a76 1abe
00000260: 3c5c 173f 19b2 5ebf ae82 08bf dd80 dbbf
00000270: fd42 7fbe a665 dabe 37e0 06bf 44bc 9ebf
00000280: f623 efbe 4f53 333f 4cc8 9fbe 2319 9cbe
00000290: 1ade bc3e a96a 413f 933f 9ebf 3ccd 093f
000002a0: 2b6f a63e 37d1 4bbf 009f e7be 02eb 6dbe
000002b0: 38e4 053f 8ac4 5ebf 508a 4d3f 6f80 b13e
000002c0: db78 56bf cbe7 6b3f 7f97 90bf cc65 de3d
000002d0: 3367 c13d 57e1 aebe 7d38 a6be 3470 04c0
000002e0: 0c7a c73e 9439 49bf 2e67 dc3f e6e6 b0be
000002f0: 7ee5 8b3f 09a9 eebe 2fa1 453e c367 23bf
00000300: 7e6a 76be edfd 423f aca9 d0be 4f86 e33f
00000310: dd00 183f ec16 54bf fe5d ce3e b02e c9bf
00000320: 65a7 ef3e d821 263f beb9 72bf a865 293e
00000330: e356 313f 313a 643f d25a 36bf 0678 fbbe
00000340: e6c8 30bf 8832 873f df1d 65bf 36e0 a2be
00000350: 4fef 293f 5908 0fbf 1b59 233f 3421 a5bf
00000360: 4d45 5c3e c79d 0a3c 5daf eb3e 91f3 a73f
00000370: 7d40 de3e ccae 64bf cd1e f73e 19d6 c5bf
00000380: d7b4 52be 4e86 143f d303 22bf f9d1 48bf
00000390: 8180 8b3f f67a 9fbf 0801 4e3f 8b4c 843b
000003a0: f8b5 b53e 4b3d 5fbe 3f1c 88bf b842 b8bf
000003b0: be94 443f 96a1 5cbf 7f19 6e3f f497 59bf
000003c0: 8247 cebe a365 b73f 6f52 7abf 6323 2e3e
000003d0: f78b 443f d473 8cbf 0778 5a3f 865f eabe
000003e0: 982c 89be a505 733f 7462 24bc bd13 5bbd
000003f0: f4cf cabe 2820 6c3f dcc6 e9be 4c34 d83f

policy_network.0.bias f4 [128]
0.17597824 -0.4611546 0.022506611 -0.29575905 -0.5747425 0.28371373 -0.7448006 0.22710669
0.6177206 1.0592253 -0.15964006 0.032439247 0.4589995 0.15219365 0.02327804 -0.4200011
-0.5836624 -0.056289814 -0.36726964 0.37371415 0.59334564 -0.10595549 -0.16117534 0.3287712
0.09576676 0.18436266 -0.47797623 0.20715192 -0.37889692 -0.068524666 -0.26469392 0.10930031
-0.81464064 -0.32215616 0.080121495 -0.15303762 0.061861224 0.53943473 -0.2280345 0.5592324
0.400087 -0.39465946 -0.2789608 0.2946796 -0.51376253 -0.29020888 -0.26080054 0.17314261
0.23487392 -0.47466657 -0.22665854 0.09863285 0.27743563 -0.79346 0.3112364 -0.2366891
-0.05460341 -0.16024357 -0.30871722 -0.3156908 0.45282856 -0.23184393 0.36586282 -0.39652538
-0.038549427 -0.12995216 -0.29744878 -0.52680206 -0.6781218 -0.7895178 0.711264 0.47473648
-1.1791968 -0.22510768 0.2597485 -0.8033903 0.43498126 -0.63979626 0.5055966 0.26380923
0.21965009 0.22717477 0.1314999 -0.52294314 0.4877368 0.14016075 0.34343874 0.379025
-0.41238177 0.19346566 0.25953522 -0.38788968 -0.763403 0.09799655 -0.65235853 0.08557674
-0.3428388 -0.15009579 0.06511865 0.4470796 0.386428 -0.27932614 -0.2489538 -0.14466289
-0.11380027 0.01075899 -0.2912137 -0.075114176 0.4432639 -0.0073346584 -0.6413256 -0.4559527
0.0776837 -0.51923376 -0.04551955 0.5460123 0.46241945 0.30877468 0.117515594 0.37635022
0.65880823 -0.22765279 0.29017508 0.0969039 0.90052176 -0.9073136 -0.03750737 0.15412158
00000000: a433 343e 751c ecbe c95f b83c bb6d 97be
00000010: 5322 13bf ed42 913e 41ab 3ebf a88e 683e
00000020: f022 1e3f b294 873f af78 23be 04df 043d
00000030: fc01 eb3e a7d8 1b3e 97b1 be3c 620a d7be
00000040: e66a 15bf 2690 66bd c40a bcbe 7657 bf3e
00000050: 80e5 173f 31ff d8bd 260b 25be b354 a83e
00000060: 5d21 c43d 91c9 3c3e 4db9 f4be a21f 543e
00000070: c7fe c1be a956 8cbd f685 87be d7d8 df3d
00000080: 4a8c 50bf a7f1 a4be bd16 a43d e5b5 1cbe
00000090: 3262 7d3d 6518 0a3f e081 69be db29 0f3f
000000a0: 34d8 cc3e ce10 cabe f3d3 8ebe 3fe0 963e
000000b0: f185 03bf 4296 94be a687 85be 4c4c 313e
000000c0: ca82 703e 7f07 f3be 2d19 68be 0500 ca3d
000000d0: 0b0c 8e3e 3220 4bbf 615a 9f3e a15e 72be
000000e0: d3a7 5fbd e416 24be 2f10 9ebe 39a2 a1be
000000f0: 25d9 e73e 7f68 6dbe 5f52 bb3e 6005 cbbe
00000100: 01e6 1dbd 2e12 05be 354b 98be 80dc 06bf
00000110: 6499 2dbf d71d 4abf 6615 363f a910 f33e
00000120: ecef 96bf a182 66be c1fd 843e fdaa 4dbf
00000130: ddb5 de3e b0c9 23bf c76e 013f 0112 873e
00000140: f4eb 603e 81a0 683e e9a7 063e 9adf 05bf
00000150: a3b8 f93e 4d86 0f3e 34d7 af3e 910f c23e
00000160: b423 d3be dd1b 463e cde1 843e 7a99 c6be
00000170: 616e 43bf 6ab2 c83d f800 27bf dc42 af3d
00000180: 9188 afbe b6b2 19be ed5c 853d 9ee7 e43e
00000190: e4d9 c53e d603 8fbe bfed 7ebe 8222 14be
000001a0: 1e10 e9bd 7a46 303c f619 95be 76d5 99bd
000001b0: 7cf3 e23e 9357 f0bb ea2d 24bf a272 e9be
000001c0: a218 9f3d 81ec 04bf b572 3abd 76c7 0b3f
000001d0: 3ec2 ec3e b717 9e3e 04ac f03d fab0 c03e
000001e0: a8a7 283f d01d 69be d491 943e 8d75 c63d
000001f0: 9888 663f b445 68bf 54a1 19bd 0cd2 1d3e

policy_network.1.weight f4 [128]
1.9537406 -0.4539957 0.6401714 1.3950794 0.9187005 0.76785284 2.3936055 -0.69382125
1.093414 2.1309428 0.5309909 1.6031182 0.52377933 0.4321654 1.2827874 1.6678663
1.0914059 -0.07006935 1.8057548 -0.29682517 1.1559067 1.2930498 1.2352133 1.8702077
0.9891348 1.7441313 0.84386027 1.8766847 0.9234166 0.9190768 1.5573972 2.1406937
0.36317518 0.9630508 1.8311062 1.3205239 0.6733019 1.8825346 0.9502642 0.14979397
1.629025 0.14966874 0.6672593 0.7611415 1.7684102 -0.060878847 2.0702684 0.715632
1.252269 1.1442115 1.459936 1.3563528 1.0113542 1.3721727 1.0060198 1.2888825
0.7628101 1.9721838 0.8025635 1.6093901 2.1731863 1.55347 1.9369642 1.3291891
-0.4646877 0.7627825 0.5293476 1.5026026 0.75008774 0.18343452 1.5844368 -0.038167357
0.89203215 1.0110775 1.7372041 1.8312178 1.2216307 1.7870907 0.8851811 1.8944035
0.8453283 1.6304939 0.48269618 0.2658433 1.3710155 0.5349799 1.326049 0.24605285
0.7264431 1.128041 1.5717264 1.1878937 1.2543943 1.5953693 0.46593076 0.5912012
1.1477056 1.5424544 1.686979 1.8080502 1.6134944 1.4912412 0.77959806 0.6663015
0.7449762 1.0212283 2.0631192 2.1790435 0.8050099 0.48469067 0.5300247 0.9209607
0.14741033 2.4624155 0.4561193 -0.2942987 1.0794789 0.9358801 1.4665524 0.50690407
0.7690583 0.88645846 1.7792913 1.0398387 1.5298778 -0.07873905 0.25571468 0.6462258
00000000: 2c14 fa3f 2072 e8be 46e2 233f f691 b23f
00000010: f52f 6b3f 0192 443f d530 1940 459e 31bf
00000020: fdf4 8b3f 5e61 0840 05ef 073f fa32 cd3f
00000030: 6716 063f c944 dd3e 6132 a43f a57c d53f
00000040: 30b3 8b3f 8580 8fbd f922 e73f 78f9 97be
00000050: c0f4 933f a882 a53f 781b 9e3f f762 ef3f
00000060: f037 7d3f b23f df3f 3a07 583f 3437 f03f
00000070: 0865 6c3f 9e48 6b3f cb58 c73f 2001 0940
00000080: 19f2 b93e 7f8a 763f b061 ea3f ed06 a93f
00000090: 835d 2c3f e5f6 f03f 8444 733f 9763 193e
000000a0: e483 d03f c342 193e 81d1 2a3f 2bda 423f
000000b0: 445b e23f 195c 79bd 477f 0440 a933 373f
000000c0: 5a4a a03f 8675 923f 2fdf ba3f f89c ad3f
000000d0: 0e74 813f 5ba3 af3f 42c5 803f 1afa a43f
000000e0: 8647 433f 8570 fc3f cd74 4d3f 7f00 ce3f
000000f0: 7c15 0b40 1bd8 c63f 71ee f73f de22 aa3f
00000100: 8ceb edbe b745 433f 5383 073f 4855 c03f
00000110: c005 403f 42d6 3b3e d3ce ca3f 6055 1cbd
00000120: 385c 643f fd6a 813f b45c de3f 5865 ea3f
00000130: 655e 9c3f 63bf e43f 3b9b 623f d07b f23f
00000140: 6f67 583f 06b4 d03f f423 f73e 9d1c 883e
00000150: 707d af3f 71f4 083f f9bb a93f 47f5 7b3e
00000160: 2df8 393f a663 903f 552e c93f e70c 983f
00000170: fe8f a03f 1035 cc3f 7a8e ee3e f658 173f
00000180: 04e8 923f 256f c53f eeee d73f 306e e73f
00000190: fc86 ce3f fee0 be3f bd93 473f bc92 2a3f
000001a0: c3b6 3e3f 9cb7 823f 250a 0440 7375 0b40
000001b0: 2115 4e3f 6029 f83e b3af 073f 15c4 6b3f
000001c0: bcf2 163e 3798 1d40 7888 e93e 52ae 96be
000001d0: 5d2c 8a3f d795 6f3f fdb7 bb3f 77c4 013f
000001e0: 01e1 443f f1ee 623f d1bf e33f 6f19 853f
000001f0: 09d3 c33f f041 a1bd 09ed 823e 0e6f 253f

policy_network.1.bias f4 [128]
-0.0008120759 -0.036867693 -0.010997204 0.07411757 0.018460413 0.06736232 -0.0042688875 -0.018456671
0.028428521 -0.0057838885 0.0011459535 -0.009217185 -0.034454502 -0.032817993 -0.010429904 -0.029054126
0.00438601 -0.013406923 -0.027841678 -0.017708026 -0.0017826637 -0.029267209 0.006324137 0.07196645
-0.05656336 -0.013870416 -0.0073596835 -0.03764164 -0.063159995 0.03545403 -0.0018807964 0.0035036164
-0.023502335 0.047839098 0.0056846277 -0.027511751 0.016388841 0.0007594822 0.025984226 -0.03205763
0.11225529 0.010040605 0.03657948 -0.017908748 -0.055318795 -0.0051229857 0.008614508 0.0440366
0.0065745 -0.024154903 0.06632036 -0.029156884 -0.044193942 -0.009417294 0.014156135 0.005409133
-0.04148236 0.045768492 0.0031018294 0.017252734 -0.034204055 0.03159027 0.03721756 -0.0071159727
-0.039247368 -0.0033878086 0.090642534 0.006409876 0.036924586 -0.0023408115 -0.025223408 0.033237338
0.0790178 0.0017675518 0.004326134 -0.06648965 0.040661115 0.09980583 -0.035997067 0.029690849
0.020953199 -0.034883387 0.047846187 -0.0064549907 -0.032716602 -0.008386756 -0.014500172 -0.03792114
-0.028746204 -0.033421095 -0.07559912 -0.023634758 -0.009146205 0.04083025 0.0924115 0.004773532
-0.010105001 -0.05498773 0.09282983 -0.012719985 0.041541938 0.022892984 -0.027332677 0.06603626
-0.00054221775 -0.00022425603 -0.027856376 -0.01721837 0.0076386104 0.023449067 -0.04317453 -0.066890135
0.013518468 0.041826796 0.0017067442 0.017550623 -0.02615216 -0.012670757 -0.025293637 -0.041252125
0.004660067 -0.05707783 -0.014803496 0.008285819 0.00054836797 0.017001979 0.03216723 0.041168727
00000000: 7ee1 54ba 9402 17bd 9e2d 34bc f4ca 973d
00000010: 4b3a 973c 42f5 893d 06e2 8bbb 7232 97bc
00000020: eee2 e83c c686 bdbb d233 963a ad03 17bc
00000030: 2a20 0dbd 296c 06bd 30e2 2abc eb02 eebc
00000040: 85b8 8f3b b6a8 5bbc 3b14 e4bc 6c10 91bc
00000050: 45a8 e9ba c9c1 efbc b53a cf3b 2563 933d
00000060: fbae 67bd be40 63bc 8029 f1bb 1f2e 1abd
00000070: 075a 81bd 3f38 113d 0e85 f6ba ee9c 653b
00000080: f887 c0bc eef2 433d 1d46 ba3b 5360 e1bc
00000090: e441 863c fd17 473a dfdc d43c dd4e 03bd
000000a0: 1ae6 e53d 5a81 243c 5dd4 153d 5eb5 92bc
000000b0: f695 62bd b8de a7bb de23 0d3c b95f 343d
000000c0: e76e d73b 81e0 c5bc f8d2 873d 6bda eebc
000000d0: b504 35bd fe4a 1abc 22ef 673c 193f b13b
000000e0: 68e9 29bd be77 3b3d 1048 4b3b 9b55 8d3c
000000f0: 8d19 0cbd cd64 013d 7171 183d 1b2d e9bb
00000100: d9c1 20bd ff05 5ebb cba2 b93d f009 d23b
00000110: 3c3e 173d 4d68 19bb 52a1 cebc e023 083d
00000120: 16d4 a13d 32ad e73a 3ec2 8d3b ba2b 88bd
00000130: 458c 263d 0067 cc3d a971 13bd 393a f33c
00000140: 0ba6 ab3c e2e1 0ebd 5dfa 433d 6384 d3bb
00000150: d801 06bd 9b68 09bc 2192 6dbc 3353 1bbd
00000160: 297d ebbc 8fe4 08bd b6d3 9abd ae9d c1bc
00000170: f7d9 15bc 9f3d 273d 3e42 bd3d 4a6b 9c3b
00000180: 728f 25bc d03a 61bd 911d be3d 7c67 50bc
00000190: e127 2a3d 118a bb3c c7e8 dfbc 053e 873d
000001a0: 9e23 0eba 4526 6bb9 0e33 e4bc 8a0d 8dbc
000001b0: 4f4d fa3b 4218 c03c c7d7 30bd b2fd 88bd
000001c0: 907c 5d3c 9352 2b3d d5b4 df3a 53c6 8f3c
000001d0: 0e3d d6bc 0299 4fbc 9a34 cfbc fdf7 28bd
000001e0: 7ab3 983b 71ca 69bd 5d8a 72bc 3ec1 073c
000001f0: 5ac0 0f3a bc47 8b3c c9c1 033d 8aa0 283d

policy_network.1.running_mean f4 [128]
-0.18024777 -0.64199865 0.18862015 -0.4574258 -0.41427898 -0.54224885 -1.1210197 0.50411624
0.052728977 1.4174814 -0.18757433 0.27394766 0.19762193 0.22524358 -0.07701259 0.49698454
-0.16374758 -1.0326432 0.016362647 1.4458296 0.72808516 -0.61499065 -0.14953634 0.0035350868
0.31011462 -0.0942147 -0.67049044 -0.17551394 -0.26957095 0.23723385 -0.40836877 -0.23548241
-0.45707908 -0.18560195 1.3090813 -0.46698475 0.85783505 0.8989078 -1.1703436 -0.3545816
0.2597554 -0.23740733 -0.70913774 0.600632 -0.8727539 -1.2823522 0.11153034 0.24613552
0.93138695 -0.9901069 -0.1129805 0.22955526 -0.04622993 -0.9825593 1.0583451 -0.7964199
-0.4459713 0.09116465 -1.1912633 -0.30790612 0.51607746 -0.19608155 0.59769225 0.25042164
1.283417 -0.36274448 0.040891483 -0.22101617 -0.41152063 -0.44624668 0.7320107 0.82361305
-1.0463877 -0.55014116 -0.08920541 0.27860278 0.76235753 -0.31340814 0.4805245 0.5866732
0.020442802 0.553454 0.05949787 -1.1612256 0.20063463 0.0150173055 0.6290785 0.0152096795
-0.25636503 -0.23256256 0.095185496 0.4087035 -0.5371955 0.14934628 -0.3132507 -0.90989494
-0.3856368 0.06209862 0.40110368 0.43788746 -0.06404732 0.07892418 -0.028085975 0.21853685
-0.102505535 0.65321314 -0.01591108 0.056371264 0.33216214 -0.29556826 -0.89482266 -1.513959
0.07330778 -0.10176764 0.18887396 -0.6270209 0.6291859 1.2129345 0.067701474 0.77218884
0.40103775 -0.5255114 0.076595314 -0.3249463 0.62861437 -1.7536964 -0.4371196 0.7458833
00000000: df92 38be 065a 24bf a425 413e b733 eabe
00000010: 601c d4be d2d0 0abf 937d 8fbf c30d 013f
00000020: 57fa 573d 0870 b53f 7c13 40be de42 8c3e
00000030: 675d 4a3e 41a6 663e c7b8 9dbd c274 fe3e
00000040: 72ad 27be a72d 84bf f50a 863c f210 b93f
00000050: ca63 3a3f 0770 1dbf 0e20 19be eaac 673b
00000060: 58c7 9e3e a3f3 c0bd 43a5 2bbf edb9 33be
00000070: 3405 8abe 6eed 723e b615 d1be 4d22 71be
00000080: 4506 eabe 700e 3ebe fa8f a73f a018 efbe
00000090: 149b 5b3f d21e 663f d2cd 95bf b88b b5be
000000a0: a9fe 843e e81a 73be 0d8a 35bf 05c3 193f
000000b0: cd6c 5fbf 1e24 a4bf 056a e43d f30a 7c3e
000000c0: 606f 6e3f a577 7dbf 5262 e7bd 8910 6b3e
000000d0: 985b 3dbd 0289 7bbf da77 873f 2de2 4bbf
000000e0: 5a56 e4be 88b4 ba3d 517b 98bf dfa5 9dbe
000000f0: a71d 043f 9ac9 48be 5c02 193f 4437 803e
00000100: 0247 a43f a5b9 b9be d47d 273d 1052 62be
00000110: d5b2 d2be 727a e4be 0e65 3b3f 4ed8 523f
00000120: 08f0 85bf 0dd6 0cbf 53b1 b6bd 06a5 8e3e
00000130: dd29 433f 0877 a0be 4f07 f63e 3730 163f
00000140: aa77 a73c 29af 0d3f 0ab4 733d 0aa3 94bf
00000150: 2a73 4d3e 250b 763c 4a0b 213f 0532 793c
00000160: 4742 83be e124 6ebe 9df0 c23d 9641 d13e
00000170: a585 09bf 3bee 183e 6562 a0be e0ee 68bf
00000180: 3072 c5be 1f5b 7e3d 765d cd3e c932 e03e
00000190: 3e2b 83bd 00a3 a13d 8f14 e6bc 20c8 5f3e
000001a0: 6cee d1bd fa38 273f f457 82bc 8ee5 663d
000001b0: 2811 aa3e b954 97be 1913 65bf 69c9 c1bf
000001c0: 6422 963d 8d6b d0bd 2d68 413e 7184 20bf
000001d0: 5412 213f 7041 9b3f 12a7 8a3d 2bae 453f
000001e0: d254 cd3e ea87 06bf 01de 9c3d 5d5f a6be
000001f0: dfec 203f 2079 e0bf 24ce dfbe 35f2 3e3f

policy_network.1.running_var f4 [128]
0.00018202364 5.499663e-05 5.0137554e-05 4.162376e-05 2.1061462e-05 0.000714548 0.00020074948 0.00012752821
0.0003967555 0.00018554194 1.425124e-05 3.903973e-05 0.000110385015 1.3762915e-05 2.2403849e-05 0.0007485709
0.0001458024 0.0008763235 0.00019780043 0.0011690196 2.3712979e-05 0.00026122175 1.8845021e-05 0.00014249887
6.694193e-05 0.000120074095 5.2275496e-05 0.00020002598 1.0813978e-05 0.00012815665 1.2378979e-05 0.00017739556
0.00016854165 3.7740727e-05 0.0014705416 0.00013518766 0.0007289953 0.00017884457 0.0009392242 0.0008727262
3.0921172e-05 1.567618e-05 0.00018792733 0.0001268118 0.00017443628 0.0010574104 0.00019765069 1.8483679e-05
0.00049685873 0.00027507517 7.702878e-06 1.3155238e-05 0.00014697299 4.7642778e-05 0.0006064722 0.0003135158
0.0001903062 0.00010138187 0.0008749628 1.5423751e-05 7.1039794e-06 1.6643222e-05 4.5866203e-05 0.0004226535
0.0018840778 8.165627e-05 0.00015923577 0.000101291385 9.349518e-05 0.0001635182 1.2347133e-05 0.000116818694
1.04053415e-05 0.0001445 0.00016499768 0.0011019391 0.00014053813 0.00014536685 1.08856475e-05 0.00014993695
5.5452794e-05 0.00015484178 1.856314e-05 0.00043742495 0.00011481096 9.19855e-06 0.000118505275 0.00017550925
3.50769e-05 0.00022304119 1.5200701e-05 0.00061851117 5.2719177e-05 1.7300523e-05 0.00016490727 0.0010547166
1.7006612e-05 3.6145968e-05 0.00015143235 1.5354442e-05 0.0002643601 0.00017955818 7.3452706e-05 0.00017871606
2.5386444e-06 0.00041707815 0.00011615622 2.9011495e-05 2.6396798e-05 9.931496e-05 8.124808e-05 0.0011860704
8.80928e-06 0.00023343398 8.763592e-05 0.0012863114 3.042591e-05 0.0008896165 1.9024363e-05 0.00019922745
0.00010020986 0.00013060417 3.611728e-05 0.00020118915 0.000111440175 0.0007407247 0.00013175134 0.0003226872
00000000: 99dd 3e39 2fac 6638 ca4a 5238 2c95 2e38
00000010: 25ad b037 8150 3b3a 4780 5239 18b9 0539
00000020: 9f03 d039 098e 4239 9c18 6f37 97be 2338
00000030: 817e e738 45e7 6637 e6ef bb37 be3b 443a
00000040: 89e2 1839 13b9 653a a668 4f39 ca39 993a
00000050: 3ceb c637 97f4 8839 6015 9e37 c06b 1539
00000060: 2d63 8c38 4ad0 fb38 6342 5b38 11be 5139
00000070: af6d 3537 ca61 0639 4faf 4f37 4203 3a39
00000080: 8eba 3039 cc4b 1e38 30bf c03a 29c1 0d39
00000090: 0c1a 3f3a 3988 3b39 4536 763a aac7 643a
000000a0: 5bb1 0138 5780 8337 5c0e 4539 c9f8 0439
000000b0: e2e8 3639 ce98 8a3a 7440 4f39 660d 9b37
000000c0: a03f 023a f737 9039 9c3b 0137 51b5 5c37
000000d0: c31c 1a39 0bd4 4738 a9fb 1e3a 615f a439
000000e0: ee8c 4739 fa9c d438 c25d 653a 4162 8137
000000f0: b85e ee36 0c9d 8b37 7660 4038 9897 dd39
00000100: 29f3 f63a e03e ab38 87f8 2639 666c d438
00000110: d812 c438 1576 2b39 8826 4f37 8ffc f438
00000120: 9a92 2e37 ec84 1739 3a03 2d39 f16e 903a
00000130: 6b5d 1339 9e6d 1839 80a1 3637 6538 1d39
00000140: fc95 6838 065d 2239 0ab8 9b37 2f56 e539
00000150: aac6 f038 7953 1a37 0986 f838 e808 3839
00000160: 891f 1338 2ae0 6939 8306 7f37 9523 223a
00000170: c91e 5d38 9720 9137 f5ea 2c39 6b3e 8a3a
00000180: 6ca9 8e37 709b 1738 d0c9 1e39 6acd 8037
00000190: d099 8a39 c847 3c39 9f0a 9a38 ba65 3b39
000001a0: 945d 2a36 48ab da39 e598 f338 b65d f337
000001b0: b16e dd37 5047 d038 bb63 aa38 eb75 9b3a
000001c0: 92cb 1337 f5c5 7439 2dc9 b738 7399 a83a
000001d0: 253b ff37 2735 693a 8296 9f37 b6e7 5039
000001e0: c227 d238 caf2 0839 a27c 1738 4df6 5239
000001f0: fdb4 e938 312d 423a bb26 0a39 582e a939

policy_network.2.weight f4 [256, 128]
0.575409 -0.7623823 0.5764061 1.1608233 -0.42551523 0.85011643 0.37074795 0.6161143
1.1978579 -0.4833595 -0.92119795 0.2533607 0.718715 -0.021123543 -0.112545215 0.4717409
-0.4774349 0.3979002 -0.49000356 -0.3087726 0.0670931 0.3224626 0.36827552 1.0447887
-1.7971795 0.8247388 0.16345221 -0.08942281 -0.64514023 -0.7677071 0.5824896 -0.03414188
-1.0114189 -0.575757 -0.09582356 0.94623816 -1.1227111 -0.9474058 0.77654934 0.8548764
1.15963 0.80969775 -0.68252534 -0.7387224 0.06708847 -0.40158817 -0.5340108 0.42682764
-0.5875962 0.30518046 -0.6849965 -0.49174622 0.8290012 -0.11272511 -0.85154927 0.47305346
1.314601 -1.6829696 0.9132263 -0.48650047 -0.5580252 0.2905738 1.2898136 -0.5087815
-0.15234643 0.8186443 -0.7497816 -0.28301787 -0.11597696 -0.27476948 0.17245403 0.7285292
-0.5827102 0.96016705 0.42965996 0.023536576 -0.8212584 -1.006054 -0.22362715 -0.8216914
0.49869463 -0.70004815 0.28645858 0.16792004 0.74979955 0.16510971 -0.51780826 0.86929035
-1.6357663 1.06967 0.47536016 0.9307542 0.10226907 0.014906304 -0.5732603 0.7788897
0.09181018 1.1261581 -0.83925176 -0.010127352 0.48066688 -0.4824727 -1.1512077 -0.97218204
-1.8304555 -0.44886428 -1.5556662 -1.47196 0.58256054 0.82165915 0.98944193 0.77595115
0.31676537 -0.40991053 -0.010212591 0.46961197 0.18742533 -1.0898904 -0.1632394 -0.7794116
1.5666379 1.0528973 -1.3458776 0.8466254 0.63976127 -0.837166 -0.9909813 1.0677314
0.3778624 -0.5471762 -0.3147175 1.0327958 -0.43563485 0.6484937 0.58465683 1.2767547
1.3303459 -0.057751037 -1.0928884 0.43918735 1.3112226 -0.69167775 0.2632688 -0.02155423
-0.44167712 1.0062877 -1.1931776 0.25088802 0.4257692 0.4975014 -0.2966212 0.9701609
-0.5837366 1.1074151 0.3204909 1.3635001 0.39181852 -0.90465474 -0.37139392 0.37752652
-0.45431548 -0.47144136 -0.2832832 0.9178229 -0.8550283 -0.8365619 0.73125243 0.37675652
0.36071622 0.9604258 0.087220825 -0.79253024 0.060213327 -0.20341781 -0.16066985 1.0359677
-0.28522012 0.065181136 -0.07707763 0.33876005 0.43393353 0.29975125 -0.5301995 0.33248672
0.2215793 -1.697634 0.8933753 0.6628684 -0.13382441 0.2212699 0.24750465 -0.25072235
-0.1322411 0.1928883 -0.6202182 -0.039708003 0.4816603 -1.0204126 -0.124912746 -0.119523585
0.39666045 0.8202161 0.9713779 -0.18062234 -1.0174553 -0.9964079 0.057796594 0.00010104512
0.42136845 -1.3473033 0.07001116 0.585595 1.0124482 -0.2115556 0.2452594 1.7084249
-2.735348 1.4318925 -0.35812354 -0.0012050024 -0.11309798 0.22241034 -0.48403025 0.46060362
-0.3137288 0.4501918 -1.2109257 0.23193072 0.96150553 -1.0746602 -0.54208094 -1.5064074
-0.53427726 -0.34877118 -1.7391359 -0.4988958 0.23302113 0.33546883 0.46454838 0.7143846
-0.18495674 -1.2921251 -0.75171924 0.29190257 0.80104876 -0.31110206 -0.034057546 -1.2831767
1.63228 1.0512311 -0.38426661 1.17235 1.1590742 -1.2868434 -0.38456932 0.27626044
00000000: 014e 133f 7d2b 43bf 5a8f 133f dc95 943f
00000010: 22dd d9be 3ba1 593f add2 bd3e abb9 1d3f
00000020: 6853 993f e57a f7be a1d3 6bbf 7eb8 813e
00000030: b5fd 373f 480b adbc 1b7e e6bd 0688 f13e
00000040: 5972 f4be 93b9 cb3e bfe1 fabe 7117 9ebe
00000050: 1b68 893d d119 a53e 9c8e bc3e a3bb 853f
00000060: fa09 e6bf 1522 533f 0460 273e 4e23 b7bd
00000070: e927 25bf 7488 44bf 0a1e 153f 5bd8 0bbd
00000080: 2d76 81bf d064 13bf 253f c4bd aa3c 723f
00000090: ffb4 8fbf 3089 72bf f0cb 463f 2ed9 5a3f
000000a0: c16e 943f 5a48 4f3f fbb9 2ebf e91c 3dbf
000000b0: ae65 893d f79c cdbe efb4 08bf 2789 da3e
000000c0: b46c 16bf 9d40 9c3e ee5b 2fbf 29c6 fbbe
000000d0: 6c39 543f 6cdc e6bd 22ff 59bf 1034 f23e
000000e0: d844 a83f 8c6b d7bf 33c9 693f 9716 f9be
000000f0: bdda 0ebf 17c6 943e 9d18 a53f 813f 02bf
00000100: b400 1cbe ac92 513f b0f1 3fbf b8e7 90be
00000110: 5485 edbd 96ae 8cbe ca97 303e e480 3a3f
00000120: 7f2c 15bf 82cd 753f 64fc db3e c7cf c03c
00000130: fe3d 52bf 61c6 80bf 84fe 64be 5e5a 52bf
00000140: e754 ff3e 5b36 33bf b3aa 923e 3bf3 2b3e
00000150: ddf2 3f3f 8512 293e 158f 04bf d089 5e3f
00000160: ca60 d1bf f2ea 883f 6862 f33e e845 6e3f
00000170: 7272 d13d 9239 743c 30c1 12bf 5165 473f
00000180: fa06 bc3d f325 903f 34d9 56bf 31ed 25bc
00000190: f819 f63e a906 f7be c65a 93bf ece0 78bf
000001a0: 5e4c eabf 8ad1 e5be 1220 c7bf 2f69 bcbf
000001b0: b022 153f 4158 523f 114c 7d3f bca4 463f
000001c0: 122f a23e cbdf d1be b652 27bc fb70 f03e
000001d0: 6dec 3f3e 8781 8bbf 3b28 27be 8587 47bf
000001e0: 9787 c83f 57c5 863f b845 acbf 71bc 583f
000001f0: 65c7 233f 8350 56bf f3b0 7dbf 6cab 883f
00000200: 2e77 c13e bd13 0cbf a722 a1be a732 843f
00000210: 880b dfbe af03 263f 12ac 153f b36c a33f
00000220: c648 aa3f 5a8c 6cbd c4e3 8bbf 2add e03e
00000230: 24d6 a73f cb11 31bf 2bcb 863e 7f92 b0bc
00000240: 8123 e2be 09ce 803f 0bba 98bf 6574 803e
00000250: 6cfe d93e 81b8 fe3e bcde 97be 775c 783f
00000260: c36f 15bf c7bf 8d3f 6217 a43e 2c87 ae3f
00000270: 709c c83e 7497 67bf 5827 bebe 284b c13e
00000280: 0a9c e8be c360 f1be 7f0a 91be 71f6 6a3f
00000290: 22e3 5abf ec28 56bf 5c33 3b3f 3be6 c03e
000002a0: ccaf b83e 77de 753f d5a0 b23d 43e3 4abf
000002b0: 40a2 763d c24c 50be a386 24be 979a 843f
000002c0: 5f08 92be b07d 853d e0da 9dbd f571 ad3e
000002d0: 892c de3e ff78 993e 28bb 07bf b33b aa3e
000002e0: afe5 623e 124c d9bf 3eb4 643f beb1 293f
000002f0: 4409 09be 9494 623e dc71 7d3e ae5e 80be
00000300: 366a 07be 8384 453e 9fc6 1ebf dca4 22bd
00000310: 2e9c f63e e19c 82bf 41d2 ffbd c8c8 f4bd
00000320: 1417 cb3e aff9 513f 39ac 783f 10f5 38be
00000330: fa3b 82bf 9714 7fbf 1fbc 6c3d 30e8 d338
00000340: 9bbd d73e 6f74 acbf 0362 8f3d 8ee9 153f
00000350: e797 813f 08a2 58be 4825 7b3e abad da3f
00000360: f10f 2fc0 4148 b73f f85b b7be 2cf1 9dba
00000370: ea9f e7bd 89bf 633e d0d2 f7be 3dd4 eb3e
00000380: 10a1 a0be 8a7f e63e 9dff 9abf 3f7f 6d3e
00000390: 3a25 763f 778e 89bf d1c5 0abf f5d1 c0bf
000003a0: 65c6 08bf 2392 b2be 019c debf 456f ffbe
000003b0: 179d 6e3e 92c2 ab3e 49d9 ed3e e9e1 363f
000003c0: 4d65 3dbe 5b64 a5bf ac70 40bf 4174 953e
000003d0: 8811 4d3f c548 9fbe ed7f 0bbd 223f a4bf
000003e0: 8dee d03f be8e 863f 98be c4be 910f 963f
000003f0: 8b5c 943f 49b7 a4bf 45e6 c4be 0272 8d3e

policy_network.2.bias f4 [256]
0.062995985 -0.027209124 -0.07764414 -0.010637446 -0.019222107 0.055022802 0.044130675 0.066868514
-0.0118186455 -0.07030437 -0.043013185 -0.02262761 0.028630001 0.015316301 -0.07337446 -0.06702772
0.004502825 -0.08618607 0.049762018 -0.02989882 0.044889644 0.00032916586 0.070639595 0.04339247
0.024046818 0.08334518 0.05489254 -0.06312704 0.055178598 -0.04477395 0.008098841 -0.06814155
-0.02896062 0.013112919 -0.021242626 0.085187204 -0.021887563 -0.075103424 0.08248997 0.0048227343
-0.061750796 -0.04058236 -0.009856898 0.0020909198 -0.07860939 0.0013722635 -0.047144916 0.08758864
0.0068754884 -0.034728575 0.033234593 -0.07092934 -0.037152387 -0.016166694 0.016795075 -0.07223913
-0.042644177 -0.05238343 -0.052430104 -0.044234395 -0.016215948 -0.030587394 -0.031316616 0.057148546
0.006799823 0.052162055 0.052709904 0.047749292 -0.08248331 0.08334014 0.046175357 -0.07900223
-0.0062069595 -0.008433849 0.08007088 0.016852915 -0.019505128 0.07476568 -0.033684168 0.047453996
-0.021937335 0.0011692985 -0.055976033 0.04405668 0.079577066 -0.07817298 -0.07318209 0.014811064
0.024409726 0.072091155 -0.020343052 0.062298547 0.038423397 0.05220614 0.074965045 -0.034774493
-0.022609763 -0.037031684 0.034823123 -0.015968276 0.044155583 -0.0014300124 0.0004188404 0.027734436
-0.03214352 -0.058716595 0.08232999 0.061879393 -0.077538505 -0.028079608 -0.0051680515 0.022759201
-0.010760532 0.008015308 -0.038408414 0.007425212 -0.03463447 0.0372655 0.024996947 -0.04599169
-0.045508787 0.02006285 -0.08354708 0.07598484 0.057087313 -0.07923832 0.040758245 -0.023143452
0.0011478747 0.06701605 0.029174669 0.038948294 0.06792749 0.0783788 -0.01600426 0.07737407
0.053794187 0.056390375 -0.03371448 0.059956715 -0.07195099 -0.018258488 -0.08615665 0.043221284
0.080819584 0.085977614 -0.06076848 -0.004334268 -0.08095642 0.040052354 -0.07301078 -0.06434707
-0.090518706 -0.0068456903 0.0010592091 0.0093682315 0.04504494 0.057532296 0.03766647 0.06644652
0.061711017 -0.02716773 -0.07232916 -0.0077215796 0.005618532 0.08754597 0.069149345 0.063261926
0.053831097 -0.048089877 0.034560464 -0.07009078 -0.057472475 0.032344047 0.0032282446 0.033068504
0.017484933 -0.075792365 -0.01085168 -0.004676694 -0.024937276 -0.026085973 0.086131446 -0.06671979
0.05313075 -0.025640856 -0.039447673 -0.044707555 -0.08331063 0.014968564 -0.051383026 -0.06194359
0.0801663 -0.0643685 -0.069035314 0.0025009105 -0.0055629634 0.04745935 -0.061801843 -0.06878568
-0.058076866 0.053305797 0.0105089685 0.031273805 0.04786442 -0.040353984 -5.0231225e-05 -0.086691335
0.027654042 -0.07362097 -0.051050123 0.033832625 0.07666938 -0.07914238 0.07210527 -0.060772456
-0.074767664 0.084417425 -0.004989962 -0.059219155 0.0555377 0.07021775 0.006270164 0.01866331
-0.046064626 -0.0040242053 0.008348621 0.05011694 0.015134214 0.074620984 -0.049486637 0.038784545
-0.059510216 -0.011331898 0.0008912413 0.06360445 0.025472945 -0.035908964 -0.022690654 -0.05390259
0.020069826 0.06402196 -0.029027075 -0.08174472 0.07392068 0.001554861 0.035292897 -0.011371144
-0.044447817 0.07601099 0.002029429 -0.04580983 -0.03874044 -0.07519402 0.0881772 0.011295753
00000000: 0a04 813d abe5 debc e403 9fbd af48 2ebc
00000010: ae77 9dbc 975f 613d 5ec2 343d 5cf2 883d
00000020: fea2 41bc bdfb 8fbd 982e 30bd 8a5d b9bc
00000030: 7789 ea3c 39f1 7a3c 5945 96bd d445 89bd
00000040: 6f8c 933b 5382 b0bd 42d3 4b3d 5fee f4bc
00000050: 34de 373d e593 ac39 7eab 903d 4dbc 313d
00000060: d5fd c43c e1b0 aa3d 00d7 603d c048 81bd
00000070: f402 623d e464 37bd 00b1 043c cc8d 8bbd
00000080: d23e edbc 92d7 563c 0405 aebc a176 ae3d
00000090: 8c4d b3bc d3cf 99bd 80f0 a83d 0708 9e3b
000000a0: 67ee 7cbd b039 26bd d47e 21bc d007 093b
000000b0: f6fd a0bd 86dd b33a 071b 41bd ac61 b33d
000000c0: c74b e13b 8d3f 0ebd ff20 083d 6743 91bd
000000d0: 1a2d 18bd 0470 84bc d395 893c 1cf2 93bd
000000e0: a9ab 2ebd 0290 56bd f3c0 56bd 202f 35bd
000000f0: 4fd7 84bc 6a92 fabc da45 00bd 9814 6a3d
00000100: 0dd1 de3b e1a7 553d 57e6 573d c394 433d
00000110: 02ed a8bd 3cae aa3d 5f22 3d3d eccb a1bd
00000120: c063 cbbb 202e 0abc 34fc a33d 200f 8a3c
00000130: 38c9 9fbc c01e 993d 69f8 09bd 1f5f 423d
00000140: edb5 b3bc 2643 993a 2047 65bd c774 343d
00000150: 4df9 a23d 2819 a0bd 7ee0 95bd 1baa 723c
00000160: e8f6 c73c 87a4 933d 79a6 a6bc c32c 7f3d
00000170: da61 1d3d 1bd6 553d 4687 993d b36f 0ebd
00000180: 1c38 b9bc 89ae 17bd b1a2 0e3d e7cf 82bc
00000190: 7cdc 343d 416f bbba cf97 db39 5433 e33c
000001a0: eca8 03bd d080 70bd a09c a83d 3f75 7d3d
000001b0: 82cc 9ebd 3507 e6bc c258 a9bb 8171 ba3c
000001c0: f14c 30bc a352 033c 2452 1dbd 314f f33b
000001d0: e0dc 0dbd b5a3 183d 66c6 cc3c c861 3cbd
000001e0: 6c67 3abd d95a a43c bb1a abbd f19d 9b3d
000001f0: 63d4 693d b347 a2bd 1ef2 263d 5697 bdbc
00000200: 4974 963a b63f 893d b7ff ee3c 3f88 1f3d
00000210: 911d 8b3d 1085 a03d 5e1b 83bc 4c76 9e3d
00000220: 4b57 5c3d 98f9 663d 3218 0abd 2c95 753d
00000230: 0a5b 93bd d392 95bc e672 b0bd cd08 313d
00000240: bd84 a53d 0815 b03d 5fe8 78bd 7a06 8ebb
00000250: 7bcc a5bd f00d 243d ad86 95bd 66c8 83bd
00000260: df61 b9bd d051 e0bb 29d5 8a3a 367d 193c
00000270: 0b81 383d fca6 6b3d 2848 1a3d 1d15 883d
00000280: b1c4 7c3d dc8e debc 5021 94bd 4e05 fdbb
00000290: aa1b b83b 4d4b b33d 2c9e 8d3d 788f 813d
000002a0: ff7d 5c3d e4f9 44bd 468f 0d3d c18b 8fbd
000002b0: 4268 6bbd 317b 043d f590 533b d772 073d
000002c0: 903c 8f3c 0739 9bbd 3fcb 31bc f43e 99bb
000002d0: 4249 ccbc 40b2 d5bc af65 b03d 63a4 88bd
000002e0: a19f 593d c60c d2bc e293 21bd 451f 37bd
000002f0: c39e aabd b53e 753c 0277 52bd 90b8 7dbd
00000300: 3b2e a43d a2d3 83bd 6362 8dbd 51e6 233b
00000310: 8549 b6bb bc64 423d ee23 7dbd 82df 8cbd
00000320: 02e2 6dbd 2e57 5a3d cf2d 2c3c f618 003d
00000330: 7b0d 443d 384a 25bd 5eaf 52b8 3a8b b1bd
00000340: bb8a e23c 97c6 96bd ef19 51bd 1494 0a3d
00000350: d604 9d3d 6615 a2bd eeab 933d 8aec 78bd
00000360: ca1f 99bd 0be3 ac3d d682 a3bb c98f 72bd
00000370: 807b 633d 53ce 8f3d f375 cd3b cce3 983c
00000380: 43ae 3cbd 7bdd 83bb a8c8 083c 6c47 4d3d
00000390: 7ff5 773c e3d2 983d 80b2 4abd 8bdc 1e3d
000003a0: fcc0 73bd 6da9 39bc 31a2 693a 0d43 823d
000003b0: a3ac d03c 4715 13bd c0e1 b9bc f6c8 5cbd
000003c0: 7a69 a43c f21d 833d 30ca edbc c769 a7bd
000003d0: ba63 973d 7acc cb3a 498f 103d 094e 3abc
000003e0: ea0e 36bd a6ab 9b3d 2b00 053b 17a3 3bbd
000003f0: 4cae 1ebd 53ff 99bd 3f96 b43d d211 393c

policy_network.3.weight f4 [256]
-0.0076274984 -0.042073157 0.018039346 0.018800551 0.5026612 -0.008142779 0.006801321 0.008519975
0.020902697 0.0075241975 -0.07149713 -0.0056545287 0.019393103 -0.0069779195 -0.018114164 0.043821592
0.004212358 -0.45287555 0.28531694 -0.0023666325 0.011864179 0.07507341 -0.044320583 0.019646902
-0.027461968 0.04298615 0.015489332 0.075357854 -0.057717588 0.02375668 -0.022482825 -0.00016607204
0.022240896 -0.015002461 -0.075116344 0.0061322865 -0.0123348115 -0.013017298 -0.011851408 0.066341855
-0.100517 -0.018958589 0.0133149475 0.0004559742 0.015848547 -0.010520296 -0.0048096273 -0.00077124516
-0.024751037 -0.021118356 0.007690618 -0.05238791 0.01484053 0.019648632 -0.077907465 -0.023095865
0.039342366 -0.022260938 -0.024178477 -0.04380966 -0.0424236 0.007121389 -0.021368245 0.061866093
-0.013659735 0.01957603 -0.03867154 -0.00041792728 0.0060747564 0.023657883 -0.035497174 -0.0034790894
0.008097359 0.3292997 -0.067747176 0.07735592 -0.04081214 -0.021845847 -0.020718796 -0.013718461
0.0033165715 0.50702184 0.02011333 -0.00045841048 0.03679636 -0.0988385 -0.03323603 0.0048432583
0.077507496 -0.07697806 -0.054043807 -0.038406234 0.022459475 -0.029593019 -0.013011966 0.018716319
0.038524162 0.0012512604 0.0034662697 0.00044281967 0.013404406 -0.040012043 -0.008678526 0.020065099
-0.009436563 -0.014190395 -0.02592494 -0.012454957 -0.0745145 0.005836983 0.013207727 -0.0070262826
-0.016382337 -0.019076785 -0.019554026 -0.010026144 0.050149567 -0.028047012 -0.04275344 0.035862893
0.04806152 -0.0027042718 -0.09720392 -0.006439726 0.002090477 -0.069863856 0.020127537 -0.011417565
0.07618133 0.011553971 0.014727518 -0.000603105 -0.034771215 -0.0068483846 0.027439889 0.037133835
0.022740431 0.01720859 -0.004023588 0.04879843 -0.0027726474 0.31661245 -0.012045674 -0.01429489
-0.019348213 -0.048085973 0.017859086 0.027106978 0.003406247 -0.32999468 -0.03828957 0.093438186
0.05946129 -0.042564802 0.055591322 -0.07247266 -0.02948846 8.232833e-06 0.0072610816 0.4578901
-0.076922305 0.062489577 0.014266787 -0.01905494 -0.010159197 0.0302076 0.01191464 0.016612
0.035618182 -0.019248242 -0.025130693 -0.034709685 -0.013670114 -0.017815132 -0.009220402 -0.0010612604
0.015657635 -0.011996233 -0.05218918 0.0028114696 0.013242501 -0.03637302 0.17671563 0.0005981942
-0.02266154 -0.0032375124 0.029399356 0.026686858 0.011096406 -0.012163767 -0.012577404 0.08266788
0.011143532 0.032142173 0.064675905 0.019059967 -0.041069508 -0.039997384 -0.022423102 0.025350777
-0.08266321 -0.017087402 -0.025290675 -0.01401453 -0.023271088 -0.010404614 0.0025219244 -0.00063199666
-0.01695038 0.002046853 -0.0036714058 0.0023605926 0.005462046 -0.059236955 0.00084624963 0.05511287
0.030250834 -0.0604943 0.11107989 0.015479702 0.010994245 0.0074847993 0.03118115 0.0065451674
0.02027806 -0.039491057 -0.024673963 -0.010752276 0.76291853 -0.008072302 0.013781993 0.04318619
0.019854551 0.04618261 -0.27612305 0.0031617896 0.07431627 0.010587131 -0.01839417 -0.0855342
0.014327719 -0.025018854 0.01993248 0.039516535 0.09391876 -0.06467351 0.043034624 0.033290524
-0.03232907 0.08611623 0.0020493213 0.0077670524 0.41788676 0.053593177 -0.053050112 0.013752636
00000000: 18f0 f9bb e754 2cbd 40c7 933c 9d03 9a3c
00000010: 68ae 003f 4a69 05bc 9edd de3b 5d97 0b3c
00000020: 223c ab3c 8b8d f63b 166d 92bd a049 b9bb
00000030: 49de 9e3c 08a7 e4bb 2864 94bc 457e 333d
00000040: d207 8a3b 4edf e7be 1015 923e 8119 1bbb
00000050: f961 423c 17c0 993d 8089 35bd 8af2 a03c
00000060: ecf7 e0bc 3f12 303d f8c6 7d3c 3855 9a3d
00000070: 4769 6cbd 5e9d c23c e72d b8bc a023 2eb9
00000080: 8a32 b63c e2cc 75bc 99d6 99bd 59f1 c83b
00000090: f317 4abc 8146 55bc 682c 42bc 3dde 873d
000000a0: dbdb cdbd 0b4f 9bbc f026 5a3c d20f ef39
000000b0: d0d4 813c 525d 2cbc 149a 9dbb 632d 4aba
000000c0: b0c2 cabc 6700 adbc 9401 fc3b b594 56bd
000000d0: b225 733c 2bf6 a03c f38d 9fbd 8a33 bdbc
000000e0: 7625 213d 925c b6bc f111 c6bc c271 33bd
000000f0: 5ec4 2dbd 8a5a e93b 750c afbc 4d67 7d3d
00000100: 15cd 5fbc e95d a03c 0c66 1ebd 401d dbb9
00000110: c00e c73b 2dce c13c 7c65 11bd 6f01 64bb
00000120: c9aa 043c f899 a83e 08bf 8abd c86c 9e3d
00000130: a12a 27bd 10f6 b2bc 77ba a9bc 65c3 60bc
00000140: d65a 593b 2fcc 013f b6c4 a43c d056 f0b9
00000150: c8b7 163d d76b cabd 8122 08bd 32b4 9e3b
00000160: 40bc 9e3d aca6 9dbd 0a5d 5dbd db4f 1dbd
00000170: effc b73c 0f6d f2bc 2430 55bc f752 993c
00000180: 83cb 1d3d 5501 a43a 5b2a 633b 402a e839
00000190: 279e 5b3c abe3 23bd 6030 0ebc 905f a43c
000001a0: d09b 1abc d57e 68bc 8a60 d4bc e00f 4cbc
000001b0: 0f9b 98bd 2a44 bf3b 3965 583c bb3c e6bb
000001c0: 4034 86bc eb46 9cbc c42f a0bc b244 24bc
000001d0: a269 4d3d d9c2 e5bc 3b1e 2fbd f8e4 123d
000001e0: 28dc 443d 273a 31bb d912 c7bd 5604 d3bb
000001f0: 6200 093b c814 8fbd 81e2 a43c bd10 3bbc
00000200: f504 9c3d de4c 3d3c b04b 713c b119 1eba
00000210: 436c 0ebd 6a68 e0bb 9ec9 e03c a619 183d
00000220: 244a ba3c 07f9 8c3c 4dd8 83bb dde0 473d
00000230: 4eb5 35bb 071b a23e 385b 45bc 1d35 6abc
00000240: 2580 9ebc ccf5 44bd 384d 923c 740f de3c
00000250: 573b 5f3b 10f5 a8be 86d5 1cbd 855c bf3d
00000260: ae8d 733d 6e58 2ebd bab3 633d 8c6c 94bd
00000270: c891 f1bc c01f 0a37 5eee ed3b 9270 ea3e
00000280: 7189 9dbd 12f5 7f3d 3ebf 693c 1b19 9cbc
00000290: c372 26bc ee75 f73c 9f35 433c e415 883c
000002a0: 5fe4 113d 7dae 9dbc e2de cdbc be2b 0ebd
000002b0: 9df8 5fbc 0af1 91bc 2b11 17bc fd19 8bba
000002c0: 7144 803c d98b 44bc 52c4 55bd a240 383b
000002d0: 13f7 583c e0fb 14bd f1f4 343e 22d0 1c3a
000002e0: b2a4 b9bc 722c 54bb ebd6 f03c 669e da3c
000002f0: b3cd 353c 894a 47bc 7511 4ebc c74d a93d
00000300: 5c93 363c 83a7 033d cd74 843d a623 9c3c
00000310: 8038 28bd 4cd4 23bd a7b0 b7bc 6fac cf3c
00000320: 544b a9bd e1fa 8bbc 642e cfbc 339d 65bc
00000330: 02a3 bebc 1d78 2abc df46 253b 94ac 25ba
00000340: 86db 8abc 7f24 063b f89b 70bb 2cb4 1a3b
00000350: f6fa b23b 73a2 72bd dad6 5d3a 08be 613d
00000360: 99d0 f73c dfc8 77bd da7d e33d 939e 7d3c
00000370: 3521 343c 0c43 f53b 9c6f ff3c d878 d63b
00000380: 2d1e a63c 60c1 21bd 0d21 cabc 502a 30bc
00000390: a14e 433f b041 04bc decd 613c 01e4 303d
000003a0: 03a6 a23c fa29 3d3d 0060 8dbe 0736 4f3b
000003b0: 2133 983d a575 2d3c 5faf 96bc 8e2c afbd
000003c0: cfbe 6a3c 57f4 ccbc 7149 a33c 17dc 213d
000003d0: 7b58 c03d 8c73 84bd 1345 303d a55b 083d
000003e0: 7d6b 04bd b55d b03d e84d 063b c282 fe3b
000003f0: 41f5 d53e 8584 5b3d 134b 59bd bc52 613c

policy_network.3.bias f4 [256]
0.02445222 -0.15624668 -0.08964806 -0.043005392 -0.09754017 0.015777292 0.013708393 -0.010872388
0.011350631 0.31297475 -0.09350151 -0.026603576 0.057730615 0.003238086 -0.059329927 0.15531227
-0.006731338 -0.09142863 -0.012340072 0.10073572 -0.001707371 -0.03942166 -0.05518728 0.054727178
0.031512614 0.08103132 0.035002735 -0.22505142 0.011719867 -0.058676943 0.041724734 0.11103003
-0.029367046 0.12350787 -0.1764098 0.095567375 0.04936617 -0.035509046 -0.040479723 0.049352307
0.13658382 0.037303638 -0.019995108 -0.014663058 0.05607052 -0.047029804 -0.016687913 0.080883004
-0.08269102 0.013542804 -0.027070077 -0.06756116 -0.12260031 0.033543523 0.12756447 0.036176283
0.08600983 -0.060691506 0.1784466 -0.022070704 -0.055834815 0.03173505 0.1871842 -0.12836325
0.12773302 0.12741579 0.27010414 0.23245631 -0.009215069 -0.05456887 -0.09427 0.023747945
0.040019926 0.04191019 -0.115965955 0.22059326 -0.07165096 0.06596701 0.19509864 0.004283204
0.069829084 0.10690721 0.06922439 -0.11168529 0.17871436 -0.12419123 -0.060832746 -0.05017388
-0.14925304 -0.15155461 -0.13541551 0.10367444 0.0060481317 -0.041982997 0.003464441 -0.14784913
0.10866314 0.031496294 0.019313209 -0.082297854 0.050684202 0.18334213 -0.023783552 0.016969398
-0.123981625 0.20368612 -0.09950546 0.10189477 0.101335116 -0.14403783 -0.0011328554 0.22694802
0.08384404 0.013814033 0.17406172 0.15945867 0.082292676 -0.008875618 0.00024564122 -0.14987607
0.075697474 -0.0076825423 -0.0161366 -0.055502687 -0.21438676 -0.17172435 0.14334574 0.065299004
0.046217427 -0.06898235 -0.02580294 0.0222901 -0.0212877 0.039632767 -0.054269526 -0.055017237
0.063676566 -0.04148123 -0.032643374 0.029634839 0.0031408463 -0.11557903 -0.012124092 -0.03478722
-0.048397403 0.047448087 0.023725975 0.026823362 -0.026431303 -0.05396409 -0.12377575 -0.15337247
0.0018864422 -0.12168676 -0.24453318 0.08327443 0.06121978 -0.078745104 0.49153584 -0.030603552
-0.207865 0.0038776163 -0.037479714 0.13913372 -0.036146674 -0.12439737 -0.0033255992 0.060207028
0.062380712 0.04379102 0.11617073 0.050624132 0.03086409 -0.115947686 0.058107413 -0.03353867
0.04724216 -0.06057328 0.1984115 -0.033506095 0.0065943412 -0.1756787 -0.110209696 0.045060575
0.12237292 0.18132196 -0.025594162 0.014098998 -0.04005517 -0.028715808 -0.0316294 0.24917713
0.06051837 -0.01644867 -0.14781475 -0.1282877 -0.0849445 0.006898814 0.041871 -0.024825176
0.15585431 -0.0016028956 -0.013811518 0.047553856 0.01676066 -0.08202685 0.07112907 -0.082700714
0.0020416698 -0.09758461 0.009479024 -0.017993594 0.078799486 0.0138392085 0.15036243 0.10692623
-0.09832392 0.0660916 0.058806933 0.15077718 0.028907008 0.00015565415 0.068280704 0.09906061
-0.06199733 0.0026543129 -0.12669133 -0.052958764 0.16625738 -0.003404692 -0.037964143 -0.06795369
0.07160247 0.15834469 -0.05690799 -0.022721438 0.1960888 -0.08280933 0.05819783 0.03384886
-0.038148712 -0.14495872 -0.048688747 0.67101824 0.10895756 0.13549282 -0.119683415 -0.04939577
0.150849 -0.15446691 -0.0026948887 -0.016859662 -0.025969788 -0.070692584 -0.10359647 -0.011149274
00000000: 0650 c83c 21ff 1fbe 6799 b7bd 6c26 30bd
00000010: 24c3 c7bd 613f 813c 2b99 603c 1a22 32bc
00000020: fff7 393c 3a3e a03e b87d bfbd beef d9bc
00000030: f076 6c3d 1136 543b f003 73bd 2e0a 1f3e
00000040: 8e92 dcbb ef3e bbbd 032e 4abc 874e ce3d
00000050: ddc9 dfba 9b78 21bd 0f0c 62bd 9b29 603d
00000060: 5f13 013d c0f3 a53d 075f 0f3d e173 66be
00000070: af04 403c 3c57 70bd 8ee7 2a3d b663 e33d
00000080: 2993 f0bc b2f1 fc3d c5a4 34be d4b8 c33d
00000090: 2e34 4a3d ef71 11bd 11ce 25bd a525 4a3d
000000a0: a1dc 0b3e b3cb 183d c8cc a3bc 533d 70bc
000000b0: 34aa 653d 53a2 40bd 17b5 88bc fda5 a53d
000000c0: e959 a9bd a3e2 5d3c 11c2 ddbc 815d 8abd
000000d0: df15 fbbd ef64 093d 43a0 023e 952d 143d
000000e0: ec25 b03d a897 78bd b5ba 363e 9fcd b4bc
000000f0: 0cb3 64bd 9dfc 013d 37ad 3f3e a871 03be
00000100: 72cc 023e 4979 023e 174b 8a3e 0709 6e3e
00000110: cdfa 16bc 9c83 5fbd a110 c1bd 0d8b c23c
00000120: efeb 233d 05aa 2b3d 8f7f edbd 33e3 613e
00000130: bdbd 92bd b619 873d f0c7 473e 1f5a 8c3b
00000140: 8d02 8f3d 2bf2 da3d 84c5 8d3d 42bb e4bd
00000150: e600 373e f957 febd c22b 79bd 2083 4dbd
00000160: cad5 18be 2231 1bbe 5daa 0abe 4453 d43d
00000170: 682f c63b 5df6 2bbd ad0b 633b c365 17be
00000180: c88a de3d 4202 013d bc36 9e3c c78b a8bd
00000190: 3d9a 4f3d 0abe 3b3e b9d5 c2bc 6803 8b3c
000001a0: 14ea fdbd 1893 503e 85c9 cbbd 35ae d03d
000001b0: c988 cf3d a77e 13be 527c 94ba 1065 683e
000001c0: 6db6 ab3d 4154 623c 3c3d 323e 2249 233e
000001d0: 1089 a83d 0a6b 11bc 68c9 8039 1d79 19be
000001e0: 4707 9b3d d6bd fbbb e730 84bc c956 63bd
000001f0: 3488 5bbe 82d8 2fbe 3ac9 123e 7cbb 853d
00000200: 7c4e 3d3d 9e46 8dbd b060 d3bc ba99 b63c
00000210: 8b63 aebc f855 223d b949 5ebd c159 61bd
00000220: dc68 823d 39e8 29bd 0fb5 05bd c3c4 f23c
00000230: a8d6 4d3b b3b4 ecbd 21a4 46bc 0b7d 0ebd
00000240: 5b3c 46bd ed58 423d fa5c c23c abbc db3c
00000250: 7686 d8bc 7309 5dbd 247e fdbd ac0d 1dbe
00000260: 7f42 f73a e836 f9bd e866 7abe c98b aa3d
00000270: 98c1 7a3d 1d45 a1bd 96aa fb3e 4db4 fabc
00000280: 90da 54be 9b1f 7e3b 5484 19bd 1279 0e3e
00000290: 890e 14bd 0cc4 febd 4cf2 59bb a59b 763d
000002a0: eb82 7f3d 365e 333d ebea ed3d 405b 4f3d
000002b0: b0d6 fc3c fb75 edbd 0a02 6e3d d85f 09bd
000002c0: ff80 413d b01b 78bd 622c 4b3e b03d 09bd
000002d0: 5815 d83b 1ee5 33be 9fb5 e1bd 7091 383d
000002e0: a79e fa3d 77ac 393e d9aa d1bc 7cff 663c
000002f0: e410 24bd 6a3d ebbc d48d 01bd 4a28 7f3e
00000300: 1ce2 773d 5cbf 86bc c05c 17be da5d 03be
00000310: 62f7 adbd 720f e23b ed80 2b3d 2b5e cbbc
00000320: 4698 1f3e 4018 d2ba b549 62bc d5c7 423d
00000330: a74d 893c b1fd a7bd 1eac 913d fe5e a9bd
00000340: 89cd 053b 71da c7bd e94d 1b3c 4d67 93bc
00000350: a061 a13d d9bd 623c 9cf8 193e 24fc da3d
00000360: 0d5e c9bd 085b 873d 8adf 703d 5565 1a3e
00000370: 64ce ec3c 1837 2339 c1d6 8b3d 4ae0 ca3d
00000380: eaf0 7dbd fbf3 2d3b 5fbb 01be 4aeb 58bd
00000390: 603f 2a3e 4121 5fbb 4a80 1bbd 4e2b 8bbd
000003a0: 51a4 923d 1c25 223e 5a18 69bd 4f22 babc
000003b0: 81cb 483e f097 a9bd d960 6e3d 1aa5 0a3d
000003c0: d341 1cbd 0f70 14be da6d 47bd dac7 2b3f
000003d0: 2425 df3d a1be 0a3e 941c f5bd 3853 4abd
000003e0: 2978 1a3e 932c 1ebe bb9c 30bb 461d 8abc
000003f0: 98be d4bc 46c7 90bd 632a d4bd 72ab 36bc
