Results/BTC-USD/DeepRL; BEGIN_DATE(None); END_DATE(None); SPLIT_POINT(2018-01-01); BATCH_SIZE16; GAMMA0.9; REPLAY_MEMORY_SIZE32; TARGET_UPDATE5; N_STEP8/model.pkl (torch, 148533 bytes, 14 tensors)

policy_network.0.weight f4 [128, 4]
00000000: 0317 1d3f c467 693f 9469 a13f 7a1a 4d40
00000010: 066a 26be cbe1 933e c820 d53d 849e 053f
00000020: ccad 7bbe 98e7 cd3d 415d b5be 3209 0abf
00000030: a248 e63c 2f18 b1be 5699 0bbe d070 e3be
00000040: 930e a53e 5fc0 183e 0d1c eebe 34c0 413f
00000050: 2f95 b3be 375d 40bf 60a7 5abf 3738 5cc0
00000060: ada7 9ebc a0fc a33e ab71 a63d 62e9 c73e
00000070: 19b4 30bf 49af 89bf c3ae c5bf d228 4fc0
00000080: 3a9f 34bd 9dfd 69be 70cb f8be 604b 37c0
00000090: 0cc7 fe3d 0ea7 ccbc e1a8 ddbe d382 70bf
000000a0: 9211 803d d2c3 0ebf d5fe e43d c0f3 f2be
000000b0: 4d66 983b bd99 683e afcf 21be 5cca 233f
000000c0: cc01 b8bd 9885 4ebc 258b 313d 733b 733f
000000d0: c8f0 163e f0ad 93be 6b10 0ebd abbf 03bf
000000e0: b569 b33e ce2a 013e 1880 d4be 6dc7 3f3f
000000f0: abd4 663e 750e 8abe a9c3 6cbd 1427 28bf
00000100: 7149 1cbe 496d 0f3d 834a 0a3e 7940 33bf
00000110: ae49 c6bd 4a9b 513e 8a2e 4abd 98e1 8a3f
00000120: 30b4 27bf 4dcb 173f 0582 7fbe 57f1 a4be
00000130: 4e48 ec3e 346a 1dbe 46d2 04be 1170 2e3f
00000140: 2102 30bd a929 cc3e 8ade 8c3e d15a 6d3e
00000150: 45c7 4f3e e44f 2b3e 06a7 07be 29cb b1bf
00000160: ad06 26bd 91db 2ebf 37dc a8bf 9a31 abbf
00000170: 739e 6b3e 076b 063c ed8f d3bd 5945 c5bf
00000180: 2240 adbd 5264 94be 6177 17bf 1c9a 45c0
00000190: 41b2 06be 6708 fdbd e871 2fbe 2502 a93f
000001a0: 61b5 7cbd 0ab3 28bf af2b 4cbf 55a1 10c0
000001b0: 24bc 1abf 3b8c 8bbf 2ecb b4bf 38d9 50c0
000001c0: 0930 033e 65c5 6ebe f9af dc3c 7c96 68bf
000001d0: 8d9a e5bd ada6 d8bc 1876 90be d30a 953f
000001e0: c85c 253d 056a 83be 0872 d93e a5b9 133f
000001f0: f6c2 12bf c224 67bf 65cc 89bf af85 2bc0
00000200: 72f7 113e 366f 833e 67d0 023e 51b6 dfbf
00000210: a1a2 553e 6280 613e e209 d9be 47df b8bf
00000220: 97dd 503c 6bea fbbe 347c b23c d3bf 75bd
00000230: b6ff f03e 1284 e43c 145a ecbe 3c66 3d3f
00000240: 28ec 323e c5db f93e 1dc4 493f f4a1 4b40
00000250: f8b0 de3d f00c 4fbe 155f 33be 56bb ddbf
00000260: 3223 cdbd a4ee 90be e136 aa3d 8383 e53f
00000270: 7c4c bc3d 7d6e 263f c42c 5d3f ecbd 9b3f
00000280: 12bb 68be 8612 18bf caca 87bf dec4 03c0
00000290: 3f0d de3c 5e18 05be 3cd2 a73d 9ce4 15bf
000002a0: 27ce 92be 794b f7be 4304 18bf d53d 1bc0
000002b0: 9327 923d 655f 8dbd 26f9 b9be fb96 883f
000002c0: d511 8bbe 86b1 053f 333e ed3d fc6a c23d
000002d0: 6428 de3d 9164 6cbe e9a5 dc3d 1bf5 3fbf
000002e0: 3567 c93c f1a6 44be f5ca 88bd 7c1a 32bf
000002f0: aa63 023e 72a7 67be c350 ba3d aec5 5dbf
00000300: 8963 1d3e 2604 1abd a18d 5bbc 6e28 363f
00000310: 0766 17be ff14 97bb 077f 4a3d 370c 1dbf
00000320: 13ae b93c 60cf 75be 5edd 813e 70fb 47bf
00000330: c31c b0bc 5a42 4bbe fa52 f73e 87a9 7bbf
00000340: 3617 30be 0375 16be df3a 8f3e a692 3cbf
00000350: 8669 b43d 570e 3abe f172 d83d 4625 38bf
00000360: 7bd6 fcbd 52a2 d73e 0797 0bbc e9a3 aebf
00000370: 0d4c c13c 92f1 81be f16e c3bd 2a1e 84bf
00000380: 272b 113e 2abf d1bd 8e31 bb3e e7a8 74bf
00000390: 28ff 38bb c6ed 2cbc 5cc0 25be 82e4 f23e
000003a0: b6e8 a4be 5c64 39bf 8dc3 4ebf 1b85 20c0
000003b0: 2e70 9dbe d4d2 87bd 8fa7 213e cf9e 07bf
000003c0: 66c8 e13d 015f f6bd 4188 85bf 462b e3be
000003d0: fb6a 1bbe f44e c2be 49c0 b5bf 23ff 88bf
000003e0: 414c ffbe 7b7d b83d 5d25 a5be 2808 13bf
000003f0: d295 2ebe 364a c9bd a14e d93c f125 efbe
0.6136324 0.9117396 1.2610345 3.204741 -0.16251382 0.28883204 0.10406643 0.52195
-0.24578017 0.100539386 -0.3542271 -0.5392028 0.028110806 -0.34588763 -0.13632712 -0.44422007
0.32237682 0.14917134 -0.46505776 0.75683904 -0.35074756 -0.75142235 -0.85411644 -3.440931
-0.019367063 0.32028675 0.08127149 0.39045244 -0.6902481 -1.0756618 -1.5443958 -3.2368665
-0.044097163 -0.22850652 -0.4859271 -2.8639755 0.12440309 -0.024982002 -0.43292907 -0.9394962
0.06253351 -0.5576755 0.11181418 -0.47451591 0.004650867 0.22714897 -0.15801881 0.6398065
-0.08984718 -0.012605093 0.04334559 0.9501259 0.14740288 -0.2884364 -0.034683626 -0.5146434
0.35041586 0.12613985 -0.41503978 0.74913675 0.22542064 -0.26964155 -0.057803784 -0.6568463
-0.1526239 0.03501633 0.13504986 -0.7002025 -0.09682022 0.20469394 -0.04936079 1.0850096
-0.6550932 0.5929459 -0.24951942 -0.32215378 0.46148914 -0.15372545 -0.12970838 0.6813975
-0.04297078 0.39875534 0.27513534 0.23179175 0.20290859 0.16729695 -0.13247308 -1.3890125
-0.04053371 -0.6830378 -1.3192204 -1.3374512 0.23009662 0.008204228 -0.10330186 -1.5411788
-0.08459498 -0.28982788 -0.5916653 -3.087531 -0.13153936 -0.12355118 -0.17133296 1.320378
-0.061696414 -0.6589819 -0.79754156 -2.259847 -0.6044333 -1.090217 -1.4124506 -3.263258
0.12811293 -0.23317488 0.026939379 -0.9085462 -0.11211119 -0.026446665 -0.28215098 1.1643928
0.040371686 -0.25666824 0.4246981 0.57705146 -0.57328737 -0.9029046 -1.0765501 -2.6800344
0.14254549 0.25670785 0.12774812 -1.7477514 0.20862819 0.2202163 -0.42390352 -1.4443139
0.012748144 -0.49202284 0.02178774 -0.05999739 0.47070092 0.027895007 -0.46162474 0.7398412
0.17472899 0.48800483 0.7881487 3.1817598 0.10873598 -0.20219779 -0.1751674 -1.7322795
-0.100164786 -0.28307068 0.083112486 1.7930759 0.09194276 0.6501234 0.8639643 1.2167335
-0.22727612 -0.59403265 -1.0608761 -2.0588908 0.027105926 -0.12997577 0.08194396 -0.58551955
-0.28672907 -0.4829977 -0.593815 -2.425649 0.071364544 -0.06902961 -0.36322898 1.0671076
-0.27162042 0.52224004 0.11584129 0.09493062 0.10847548 -0.23085238 0.10773832 -0.74983376
0.024585346 -0.19204308 -0.06679336 -0.6957166 0.12733331 -0.22622469 0.09097435 -0.8662976
0.15370001 -0.037601613 -0.013400466 0.7115544 -0.14785014 -0.004610657 0.04943755 -0.61346763
0.022666013 -0.24004889 0.25364202 -0.7811804 -0.02149809 -0.1984953 0.48305494 -0.98305553
-0.17196354 -0.14693074 0.27974603 -0.7366127 0.088091895 -0.18169533 0.10568798 -0.71931875
-0.123455964 0.42116028 -0.008519894 -1.3643771 0.023595834 -0.25379616 -0.09542645 -1.0321705
0.14176618 -0.1024154 0.36561245 -0.95570225 -0.0028228257 -0.0105547365 -0.1618666 0.47439963
-0.32208794 -0.7241876 -0.80767137 -2.508124 -0.3074965 -0.06632009 0.15786575 -0.529767
0.11024551 -0.12029839 -1.0432206 -0.44368953 -0.15177529 -0.3795086 -1.4199306 -1.0702862
-0.49862865 0.090083085 -0.32255068 -0.5743432 -0.1704934 -0.09828608 0.026526751 -0.46708634

policy_network.0.bias f4 [128]
00000000: 3bdf d6be 3afb c0bd 0087 b2bb 64f9 d23e
00000010: b389 abbe b6e9 aa3d dc95 59bd 1c94 9c3b
00000020: 602d efbe 5b1f d6be 77c0 ed3e 1c3e d9be
00000030: 8c73 d5be 4fb8 693e ec19 833d f507 273d
00000040: 2bb1 ad3c 42cd 063f 5b5e 7abd 316f a8be
00000050: 79a8 7ebe 5986 e2bd b58c c23d a96a db3e
00000060: f456 89be ddcf c6be 3deb f03e 6218 76be
00000070: decf 0f3e c399 75be 23f6 e6be e941 ad3e
00000080: 632d 46bd fa89 903c f42f 95be 439b ab3d
00000090: a730 30bf 6037 13be f512 a03e 02f7 d53e
000000a0: 7965 ae3e 3f1b 28bd f37b f3bd 78cd 52be
000000b0: dc6e a63d 2eae 743e 4175 943d 21ea 0b3f
000000c0: 6491 fbbd 0c81 d03e e307 42be 9bb9 babe
000000d0: cb78 b9bc 05ba debd a007 993e a89c 4a3e
000000e0: 515e 3e3d c764 06be a5ee 0e3f e346 28be
000000f0: 8206 06bf 273a 89be ea48 a8be a36e 9cbd
00000100: c5c5 e0bd e8ef 92bd 692a 9abd 1270 613e
00000110: 549c 353e 3de9 dfbe 215a 433e 9c86 07bf
00000120: 64d6 febc 6051 f2bd e077 a1be daa7 ee3d
00000130: ab8c 4a3e 6f2c 9abd 1c6e 6ebe 92a6 be3e
00000140: 2266 243d 4117 32bf 0eb2 0e3f e6c0 b93e
00000150: 97a8 2dbe 2422 513e d46a 92be c02e e0be
00000160: b30e 1fbf 8f1e 433e 119a 87be 0109 07bf
00000170: 482c 90be 6fd7 8bbe 2d8a 5abe b1ee cc3d
00000180: 19b8 d43e 59f1 b83e 454b dbbe bcd0 01bf
00000190: 97d7 0b3f cda5 a3bd ccc2 6e3e cdaf 2c3f
000001a0: cbc3 c6bc a29b f3bd d068 c13e c6dd bebe
000001b0: d1b1 fa3e 9bf3 383e 4e30 8b3e f8a4 013f
000001c0: e4b5 d63e 48ea db3d 8e84 36be 7f9e 7dbd
000001d0: ac2e 473e 0d57 efbc 0005 1cbe d671 e9bd
000001e0: 8d2f e9bb 95e6 82bd 41a2 b53d 87a5 35bd
000001f0: ad51 a3bd 1651 e2be a75e 7f3e 72c6 5fbe
-0.41967186 -0.09422918 -0.005448222 0.41205895 -0.33503494 0.08345358 -0.053121433 0.004778398
-0.46714306 -0.41820797 0.46435902 -0.42430198 -0.41689718 0.22824214 0.064014286 0.040779073
0.021202644 0.5265695 -0.06112514 -0.32897332 -0.24868955 -0.11060781 0.09499494 0.42854813
-0.26824152 -0.38830462 0.47054473 -0.24032739 0.14044139 -0.23984437 -0.45109662 0.33839348
-0.048383128 0.017643917 -0.29138148 0.08379223 -0.6882424 -0.14376593 0.31264463 0.41790015
0.34061792 -0.04104161 -0.11888876 -0.20586193 0.081266135 0.2389457 0.07248927 0.5465413
-0.122835904 0.40723455 -0.18948321 -0.3646973 -0.022640606 -0.10875324 0.2988863 0.19786322
0.046476666 -0.13124381 0.5583289 -0.16433291 -0.5235368 -0.2680218 -0.3286813 -0.0763829
-0.109752215 -0.07174665 -0.0752762 0.22015408 0.17735416 -0.43732634 0.1907735 -0.5293977
-0.031108089 -0.11831927 -0.3153677 0.11653109 0.19780223 -0.07528006 -0.23284191 0.37236458
0.040136464 -0.6956673 0.5574044 0.36279982 -0.16958843 0.2042318 -0.28597128 -0.43785667
-0.62131804 0.19054626 -0.2648473 -0.52748114 -0.28158784 -0.273128 -0.21341772 0.10006464
0.41546705 0.36121634 -0.42830864 -0.5070913 0.5462584 -0.07990608 0.23316497 0.6745575
-0.024263283 -0.11894919 0.37775278 -0.37278575 0.48963788 0.18061678 0.2718529 0.5064235
0.41935647 0.10738045 -0.17824003 -0.06191873 0.19451398 -0.029216314 -0.15236282 -0.113986656
-0.007116264 -0.06391636 0.08868838 -0.044347312 -0.07974563 -0.4420249 0.24938451 -0.21853045

policy_network.1.weight f4 [128]
00000000: 94c7 0d40 7bf7 493f 2914 eb3e e07c 523f
00000010: 6bb4 853f 18fd 3640 19d9 3b3f 30a7 0d40
00000020: 02b9 f33f b816 9f3e 27af 113f cb20 7d3f
00000030: c454 063f 9171 0e3f 7f1d 8e3f aad9 173f
00000040: 966a 2d3f 9d00 e63f 0906 b03f 0060 753f
00000050: a695 5b3f c735 8a3f 9442 3e3f cac8 853f
00000060: e76f 0840 508f 403f bd7f ab3f 33ac 0f40
00000070: 0290 bc3f 42fe 5b3f d8a9 0fbe 880d fc3f
00000080: 0f78 a63f 5f8d 733f 301b 453f eefd 7e3f
00000090: 015c 0e40 52a1 aa3f 9930 5f3f 677c 153f
000000a0: 9099 983f 35a7 293f 4759 dd3f 1331 733f
000000b0: beed ac3e ce9e 913f 178f 863f ac03 e23f
000000c0: 7619 1e3f 1320 3b3f e059 943f b349 7e3f
000000d0: 4f7d 7a3f a2a9 7d3f 6d34 473f d7dc d33f
000000e0: 427b 533f a549 8f3e bc2e fd3f 9abe 503f
000000f0: 2707 6c3e 7131 db3e aa92 953f 6756 0e3f
00000100: 5e38 1240 8e45 8c3f 6c81 4a3f a70a 0140
00000110: 9533 a03f 170b d63f f6f9 0a3f df18 ab3f
00000120: e71f ab3f b6c1 0c3f 1399 683f 3f74 c33e
00000130: 954b c53f 60d1 6b3f 48af 8a3f e44c aa3e
00000140: de22 773f 63ea 7c3f c4d6 4b3f 3bbb 183f
00000150: bdf4 3e3f 53a1 c93e e260 383f ccc4 073f
00000160: 25b5 2a3f 6ce9 5a3f 4099 7e3f b5eb 263f
00000170: 70c0 053f 4501 5d3f 075a 253f 0fe5 a3bd
00000180: 8378 683f c313 943f 9972 243e 13ed 3f3f
00000190: 76cb 8f3f df2b db3e 1b92 313f 6237 643f
000001a0: 40bc b43e f025 673f 740d 093f 13eb 153f
000001b0: df0a 0440 84ce 3d3f a163 bd3e 18a4 9f3f
000001c0: 0156 ad3e 3164 e13f 0546 983e 11cf 3d3f
000001d0: 9a43 283f ee42 863f 3e15 53bd 1756 f4bc
000001e0: d4cb 413f c6d0 553f 9af0 393f 5f56 b43e
000001f0: ad1a 753f 16bd 983f d6dd 393f 0857 613f
2.2153063 0.7889325 0.45913818 0.82221794 1.0445684 2.8591976 0.7337814 2.2133293
1.9040835 0.3107202 0.56907886 0.98878163 0.5247309 0.5564204 1.1102751 0.59316504
0.6774076 1.7968937 1.3751842 0.9584961 0.8577522 1.0797662 0.7432034 1.0451901
2.13183 0.7521868 1.3398358 2.2448852 1.4731448 0.8593484 -0.14029634 1.969163
1.3005389 0.9513759 0.7699461 0.99606216 2.2243655 1.3330481 0.8718353 0.5839295
1.1921864 0.6627076 1.729287 0.94996756 0.33775133 1.1376588 1.0512418 1.765737
0.617576 0.73095816 1.1589928 0.99331206 0.97847456 0.99086964 0.7781437 1.655177
0.8260995 0.27985874 1.9779887 0.81540835 0.23049603 0.42811158 1.1685383 0.5560059
2.2846904 1.0958726 0.7910373 2.0162752 1.2515742 1.6722134 0.5428766 1.3366965
1.3369111 0.5498308 0.9085857 0.38174626 1.5413691 0.92116356 1.0834742 0.33261788
0.9653758 0.98795146 0.7962458 0.5966069 0.7459219 0.39380893 0.7202283 0.53034663
0.66682655 0.85512424 0.9945259 0.6520341 0.5224676 0.8633006 0.64590496 -0.08002674
0.90808886 1.1568531 0.1605934 0.7497112 1.1233966 0.42806908 0.69363564 0.8914701
0.35299873 0.90292263 0.5353615 0.5856182 2.0631635 0.7414324 0.36990073 1.2471952
0.33854678 1.7608701 0.2974092 0.74144083 0.6572815 1.0489175 -0.05153393 -0.029826207
0.7570164 0.8352169 0.72632754 0.35222146 0.9574383 1.1932704 0.7260412 0.88023424

policy_network.1.bias f4 [128]
00000000: efec f1bb 5a97 c03d fe2f 73bc 52b0 803c
00000010: 8bd4 dcbd dfb4 9ebd ca5c db3d f859 1cbd
00000020: 3c71 373d ee80 dbbc 0b78 56bd 1156 123e
00000030: bd0e 363d a51c b4bc 21d8 313e 9fdf 143d
00000040: 5892 023d 1778 6a3b 4f86 103d 95e1 eb3c
00000050: af3d c7ba 367f f0bb a493 a13d 9e62 5fbd
00000060: 50dd 61be 76a0 213c e1ab 7b3d 0110 a8bd
00000070: 4dd7 f83d e8ef c63c 1597 ddbd 4d8e 01be
00000080: 88b1 8d3d e244 403d 958c 073e ef9e d7ba
00000090: 8d10 9fbc 50f4 a13d 2a22 09be 1fc5 8a3d
000000a0: ae0e 8c3d 3c21 3d3c c1cc 593c 3896 16be
000000b0: 53cb 013e 1306 6abc c874 d6bd 4b42 f53c
000000c0: be6f b5bd 12e7 29bc af56 0abe 4f69 273c
000000d0: 6912 ac3d 8385 25bd e2e6 f83d ae87 8fbc
000000e0: 42cb 63bc dc06 2ebd f2fa c0bc 7238 923c
000000f0: 0e8c a5bd a349 36bd 7e06 4fbd 4339 ff3c
00000100: b57e 623b 2b4a 5e3d 6789 0cbd 46e6 963d
00000110: c167 843c 19ee 0a3d cca2 013d f8a4 0f3d
00000120: 5bc7 a33c 46b9 54bd c5f7 d23d c5a5 8abd
00000130: a5e3 923d c0cc be3d dfc1 ca3d ea79 82bd
00000140: 2fe2 193d 5bae f73d 596e 313d fd43 153e
00000150: 173f 793c e544 9a3c 2036 bb3d b477 df3d
00000160: 35a7 fc3c 240d b93d c824 0c3e 556a 643d
00000170: e5fd 07bd 2f39 80bd ff7a 3fbc 3d0a 81bd
00000180: c084 5dbd e03a 653d 0348 09bb 2801 61bd
00000190: f65f 183d 4be6 c43d 1dff 3dbd c46c 913c
000001a0: 8295 86bc ff72 a53d 7aee f73c a4f6 0e3d
000001b0: 11f9 273e 6232 fcbc 9b02 a03c d2d2 2ebd
000001c0: 4df1 913b e366 023d a91f cd3d c439 f63c
000001d0: 426f 2b3e ed5e be3d 472d dcb9 bbcc b73c
000001e0: bb15 eb3c 6f33 753d 0cf9 833d 422b ecbd
000001f0: b9c8 94bd 7491 c33b 7bc6 a1bd 88ac b5bd
-0.007382981 0.09403868 -0.014842985 0.015709076 -0.10782727 -0.07749342 0.107110575 -0.03817174
0.044785723 -0.026794877 -0.052360576 0.14290644 0.04444765 -0.021986315 0.17367603 0.036346074
0.031877846 0.0035777146 0.035284337 0.02879409 -0.0015200878 -0.0073393835 0.07889488 -0.054537408
-0.2205708 0.009864917 0.061443213 -0.082061775 0.1215044 0.024284318 -0.10819832 -0.1265194
0.06918627 0.04694069 0.13237222 -0.0016450564 -0.019417072 0.07907927 -0.13391939 0.06775879
0.068387374 0.011543568 0.013293446 -0.14705741 0.12675218 -0.014283675 -0.10471493 0.029938838
-0.08859204 -0.010370033 -0.1350963 0.010217979 0.08401949 -0.04041053 0.121534124 -0.017520752
-0.013903441 -0.04248701 -0.02355716 0.01784918 -0.08083354 -0.04450382 -0.0505433 0.031155234
0.0034560387 0.05426995 -0.034310725 0.0736814 0.016162755 0.033918474 0.031649396 0.035069436
0.019992521 -0.051934503 0.103011645 -0.06769899 0.07172326 0.09316397 0.09900259 -0.063709095
0.03756922 0.120938025 0.043318126 0.14576717 0.015212796 0.01883168 0.09141183 0.109115034
0.03084145 0.090357095 0.13685906 0.05576547 -0.033201117 -0.06260907 -0.011687039 -0.06300781
-0.05408168 0.05596435 -0.0020947463 -0.054932743 0.03720089 0.096142374 -0.046385873 0.017752059
-0.016428713 0.080785744 0.030265082 0.034903184 0.16403605 -0.030785743 0.019532492 -0.042681523
0.004453814 0.0318364 0.10015804 0.030056842 0.1674166 0.092954494 -0.00041995404 0.02243649
0.028696885 0.059863504 0.06443986 -0.11531688 -0.07264847 0.005968267 -0.07899185 -0.08870798

policy_network.1.running_mean f4 [128]
00000000: 8048 4840 4d10 b63e 8a67 1dbf b119 fcbd
00000010: 2786 013e d2df 47c0 09b9 d03e 70a7 77c0
00000020: acdf 27c0 aeea 95bf 7d57 5abd 0540 a43b
00000030: b6e9 ec3d e6c9 3dbe 047b 0d3f d052 d4be
00000040: 41fc c5be 722f 9b3f d75d d9be 5439 393e
00000050: f46c 863e 1e34 4cbf 27de f2bf e341 d3be
00000060: 8a77 2bc0 eea6 193e 76da e2bf 536d 80c0
00000070: 8026 e7be 7b26 573e a989 f13b cdc2 30c0
00000080: 2411 48bf 7ce3 55bf 3526 1abf c523 0d3f
00000090: 8c17 0440 b54b abbf f90d 9a3f 1093 0540
000000a0: f1d3 febf 110c cfbe a8a5 17c0 977d 623e
000000b0: 6709 b83e 8a6d 62be 0410 f7be 5ebf aa3c
000000c0: 621e b93e 3bf6 9ebc b0c9 23bf 64c7 4dbf
000000d0: 0ead fabe f5b1 08bf 2748 aebe bdd2 1cbf
000000e0: 9ea8 93be 5d40 563d a7ef 01c0 3ee7 1bbf
000000f0: f6b6 b2bf 3398 02c0 2e22 8cbf a534 ffbe
00000100: 7cde 23c0 f3fd d33e 0e94 0ebf d1ac 1640
00000110: c472 99be e3f1 fc3f 9a4b 173f fa83 6bbd
00000120: f893 c03f f10b 773f 7a0b 68bf d6ab 1c3f
00000130: 3bb9 373f 99aa bd3e c098 433f 0248 83be
00000140: 3154 8bbf 2d9e 93bf 1ce2 083e 8898 64be
00000150: 0755 20bf 3c2d 1ebe ecd7 37bf c34f 70bc
00000160: 386b 2dbe b845 56be 4ff3 28bf 4a02 7ebf
00000170: 6a8c d1bf c454 2fbf eeeb 5ebf 3561 713e
00000180: 6ec7 833d 2a8c 523f 16ec 81be fc42 80bf
00000190: 6b6d 843f 0bf3 0abf 423d 2d3f 31ff 923f
000001a0: d65d c63e 4a67 a53e 3ddc 99bf 1b2f 6dbf
000001b0: b8a1 5740 9117 793f 357c 18be b052 edbe
000001c0: 870c b93f 4e69 39c0 2492 d7bf 19f4 bbbf
000001d0: d837 253f 1e5a 34c0 6f61 3ebf c79c 193e
000001e0: 546d fdbe 0cb8 fbbe e396 ee3e 3929 593f
000001f0: b397 2bbf b8db 993c 5c76 bdbe 108f 51bf
3.129425 0.35559312 -0.61486113 -0.12309588 0.12648831 -3.123036 0.4076617 -3.8695946
-2.6230268 -1.1712244 -0.05330609 0.0050125145 0.11568014 -0.1853405 0.5526583 -0.4146943
-0.38669017 1.2123854 -0.42454407 0.18088275 0.26255 -0.79767025 -1.8974046 -0.41261205
-2.679171 0.15005085 -1.7722919 -4.0133452 -0.4514656 0.21010773 0.0073711467 -2.7618897
-0.78151155 -0.8355024 -0.6021455 0.55132705 2.0639372 -1.3382479 1.2035514 2.087101
-1.9908429 -0.40438893 -2.3694859 0.22118221 0.35944673 -0.22112098 -0.48254406 0.020843204
0.36155993 -0.019404521 -0.63979626 -0.8038237 -0.48960155 -0.5339654 -0.34039423 -0.6125906
-0.28839582 0.052307475 -2.0302522 -0.6089972 -1.3962085 -2.0405395 -1.0947931 -0.49844852
-2.5604544 0.41404685 -0.55694664 2.3542979 -0.29970372 1.9761318 0.59099734 -0.05749891
1.5045156 0.96502596 -0.9064251 0.611997 0.71767014 0.37044218 0.76404953 -0.25640875
-1.0885068 -1.1532646 0.13367504 -0.22323811 -0.6262974 -0.15446943 -0.71813846 -0.014667454
-0.16935432 -0.20925033 -0.6599626 -0.9922224 -1.6370976 -0.6848872 -0.8707875 0.23572238
0.064345226 0.82245123 -0.25375432 -1.0020442 1.0345892 -0.54277104 0.67671597 1.1484128
0.38743466 0.32305366 -1.2020336 -0.9265 3.3692455 0.97301584 -0.14891131 -0.46352148
1.4456948 -2.8970523 -1.6841474 -1.4683868 0.64538336 -2.8180003 -0.7436742 0.15001212
-0.49497473 -0.49163854 0.46599492 0.84828526 -0.6702835 0.018781528 -0.37004364 -0.8185892

policy_network.1.running_var f4 [128]
00000000: 0436 913f 9f16 9a3c 17e0 053d c863 d73c
00000010: e84d ab3c 128d 6e3f 85a7 a03c 63ad ac3f
00000020: 0159 d83e 44de 4f3d f469 d23c 4b69 903c
00000030: fcc7 d63c d5d2 833c 1f40 bd3c 0416 a03c
00000040: b647 7e3c 0580 343d 41d4 3a3c 78ba c23c
00000050: b6e2 c13c 323a 323d c2ce b43e 2c36 863d
00000060: 7513 073f 8622 e33c 41e0 e83e 7813 a43f
00000070: 02d2 063d 503b a33c fe46 953c dfcf 5d3f
00000080: 7d4a 4f3d 6f30 863d f4d0 173c e487 ad3c
00000090: a992 2f3f 6933 063e 515f 953d 17d4 7f3e
000000a0: 629c f93e 6605 4d3c 5ee4 ea3e ec4d 923c
000000b0: 5d45 f33b d6be a53c 0081 e83c b22f d73c
000000c0: 54c9 af3c 8353 893c c8c7 a13c 1e48 a03c
000000d0: 942a ab3c 037e 8d3c fd39 183d 989b 773d
000000e0: ce0d 403c a93a 5a3b 131c 1b3f 7407 973c
000000f0: 2c4e 873d 45a0 8d3e 6d12 553d 3c4f 863c
00000100: 428f 0b3f e04f bc3c 1a51 ad3c 452e d43e
00000110: e9f8 af3c 8029 073f 07d4 7c3c 4c13 ad3c
00000120: 60b0 5b3e 2351 d93d 981e 033d 0e72 b53c
00000130: 3b60 de3c 9ffc 9a3c 3a7e be3d 2a65 123d
00000140: 1f7b ee3d 547c a43c 1a8d 8e3c ad7b 023d
00000150: 864f a23c 9a7c 453c d108 913c c7ea 863c
00000160: 6a72 9b3c daf3 613c 00c9 753c 0fca a73c
00000170: bad0 273e 5a12 853c 35c0 1f3d 9498 cd3a
00000180: ceb5 303c de31 a43c 8c4e 333b f983 b93c
00000190: b647 bd3c 3f3d a13c 6cf1 993c 4b12 a93c
000001a0: 35ca 793c 8398 953c 366c 653e 775e e83c
000001b0: b091 3f3f bbda 6c3d be20 8a3c 7ca6 a73d
000001c0: 973d bf3d bf8f 4f3f 7cef 4b3e 8bba 343e
000001d0: 1fe6 963c 5110 333f 5b2c 033d 8ab4 ce3b
000001e0: 48e9 ae3c 2eb7 8a3c 07c1 603c 62b1 8c3d
000001f0: 0a0f fe3c d742 a43c b96a 0f3d bab5 093d
1.1344609 0.018809615 0.03268441 0.026292697 0.020911172 0.93184006 0.01961113 1.3490413
0.42255405 0.05074908 0.025685288 0.017628333 0.026218407 0.016091743 0.023101864 0.019541748
0.015520027 0.0440674 0.011403144 0.023770556 0.023667675 0.04351253 0.35313994 0.06553301
0.52764064 0.027726423 0.45483592 1.2818441 0.032915123 0.019925743 0.018222328 0.8664531
0.050608147 0.06552207 0.009266127 0.021182962 0.6858316 0.13105549 0.07293571 0.2498325
0.48752123 0.012513494 0.45877355 0.017859422 0.00742404 0.0202326 0.028381824 0.02626786
0.021458305 0.016763454 0.019748583 0.019565638 0.020894326 0.017272001 0.037164677 0.06045112
0.011722041 0.0033299124 0.6058971 0.018436171 0.06606707 0.27661338 0.052019525 0.016395204
0.5451547 0.022987306 0.021156836 0.4144155 0.021480994 0.527977 0.015431411 0.021127366
0.21454 0.10611179 0.0320116 0.022149112 0.027145496 0.018919287 0.093014196 0.03574101
0.11644577 0.020078816 0.017401267 0.031856228 0.01981331 0.012053633 0.0177044 0.016469372
0.018975455 0.013791049 0.015001535 0.020482091 0.16388217 0.016244102 0.039001662 0.0015685731
0.010785533 0.02004331 0.002736005 0.022645937 0.023105484 0.019682525 0.018791877 0.020638606
0.015245964 0.0182612 0.2240456 0.028365357 0.74831676 0.057825785 0.016861316 0.08186051
0.09337919 0.81078714 0.19915575 0.17649285 0.018420277 0.6994677 0.032024723 0.006308143
0.021351472 0.01693305 0.013717896 0.068697706 0.03101303 0.020051403 0.035013888 0.033620574

policy_network.2.weight f4 [256, 128]
00000000: 47c5 683d 2a78 f1bc 1a32 0cbe 0e4a 15be
00000010: 02da 6fbf ad13 e33d 7b52 babe d3f5 c0bd
00000020: b761 c03d 0868 14bd 1b1d e43e b84b 1abf
00000030: 1a72 823d 018c d63d 5de5 69bf 4307 14be
00000040: d02e b73e d44e 77be 912d 92be 8f00 40be
00000050: e1ed 25bd b4c9 3abc 8701 afbe dff3 38be
00000060: 5f15 773d 4c03 50be 7de2 55be fd17 59bb
00000070: cbf9 2d3e 6eae aabe bb48 dbbe 75da ecbd
00000080: 4f68 673e 0c3d 3ebe 33e7 883e e91f 7abf
00000090: a1e4 89bc 43ad c7bd 01a6 bdbe 247d ca3e
000000a0: 2fce 60be 7960 be3e e61d b63d 0c8d fdbe
000000b0: 0305 3ebe ccf9 c73e ebad 6d3e af4f 523e
000000c0: acab b9bd 8ff4 3b3e 6aab 333f 9d5d 533f
000000d0: 795b 2a3f 02ad 923e d648 b63e c0b9 013d
000000e0: fbda 0a3f c50d 323e 09bb 28be 2a35 2f3f
000000f0: 2864 98be 3310 a9be 49c7 98bd a1fc d13e
00000100: 092f e63d 6dae bbbe 35d6 3d3e e6be 1dbe
00000110: f689 f43e 88cb 623e 6b46 07bf 61f4 24bf
00000120: 40e7 28bd fd04 60bd f13d c8be 9fc4 c13e
00000130: 94c9 b5be 6203 f0be 516c 3dbe 56a5 f0bd
00000140: 839a cb3c dc2e f53e 0a5b 473f bee3 1fbe
00000150: 1e03 d93e 05f3 323d 6c99 a53e 95a4 d7be
00000160: 07dd 31bf 373b dcbd ccee 583e c3cd 3d3f
00000170: f970 9ebd 2f0e a93e 1159 d9bd c67c 68be
00000180: ab53 35be a90f f5be b71f a53e de2c a83d
00000190: 2b98 9ebe 557a ed3d abb0 b4be edbe 773c
000001a0: 7668 cebe c3ef c9be 2eb4 dbbe afdb 113e
000001b0: 338d 37bd 4c73 823c 3d93 003f ac00 8e3e
000001c0: 0ea0 7e3d 5a5e 39be c06c 15be 6740 d0bd
000001d0: 29c6 d0be 8740 9bbe 537d aebe 42eb 34be
000001e0: 8238 0d3f 788f e73e 78bd 0fbf 146d 733e
000001f0: cb2e af3d cb1c 90be e8c8 d6be 8ce6 703e
00000200: 73fe 49bf f9d7 c8bd abc2 bf3b 0b21 bbbc
00000210: 459f d0bd 4adb b03f f568 8abe b3a6 1c3f
00000220: 69bb 5b3f dff4 f83c b86b 733e 1782 14be
00000230: 1b16 933d ce23 d23d effb 01be 95e4 bb3d
00000240: 6b43 a6be 7e5f 07bf 7112 e3be cc54 7b3e
00000250: 4371 dcbe ead4 fe3e c450 783e cb35 003f
00000260: 06e1 8a3f 35fa 0abe 539a 153f 1cdc 2d3f
00000270: 58ca e63e 6702 31be d9be 15bd 2606 163f
00000280: c427 1b3f 2e7c c83e e12c ac3e e205 a23d
00000290: ccb9 89bf 165c 073f 6da2 a5be fb0a 73be
000002a0: 1ff3 e03e d830 8fbd 151a d93e 284e bd3d
000002b0: 863c c6be 5524 a43e bd03 c93d 8776 e93e
000002c0: f215 863e 50ec 69be e9bf 0e3e 4d80 0c3e
000002d0: 6f7d c03d 2930 703e 647d a9bb 0326 b53e
000002e0: 0ff4 6a3e c3dc 9c3e f617 113f 95e8 60bd
000002f0: 84a4 183c 368e f53d bfdf aabe 91f3 6ebd
00000300: 66af 923f 1ea3 f0bd 880f 823e 6f3c 7fbf
00000310: 6c97 833e f137 25bf de88 473d 2bfa 62be
00000320: d4f7 5bbe 38c1 82be bbfd 9c3e bb8e 3dbd
00000330: 4933 e4be 193e 87bd e3a4 29bf 459f 963d
00000340: c3a5 d73e f9a7 6c3e a079 e83d 1101 b3bc
00000350: b474 ed3c 5b34 a5bd aabd e2bd e19c 8fbe
00000360: 5846 c6bd 48c8 8e3e 0b18 fb3d e1af 9e3d
00000370: 7b91 313e df3c 343e 79d5 753d c3d5 0f3e
00000380: 7f6c ecbe 8455 4dbe 95d8 86be 41ef 35bd
00000390: f6eb b7be 3d81 7e3e b049 74be 19d3 923e
000003a0: 1604 ab3d 6532 fcbb 8348 8f3e d6fe 073e
000003b0: f631 2fbf 1d4c 50be db27 723e dd1b 873e
000003c0: ad7e 07be aa4e 373f af21 3f3d 8e54 a43e
000003d0: 3a6e 1abe f35f 6f3e 859e 84bd 5898 de3d
000003e0: 75d7 c8bd b39d 903d ed8c 12bf 933d adbd
000003f0: 71b9 99be afb5 9cbe cc59 563e 28ed bc3e
0.056828763 -0.029476244 -0.13690987 -0.14579031 -0.9369203 0.11087737 -0.36391053 -0.09421887
0.093936376 -0.036232024 0.44553456 -0.6027179 0.063694194 0.104759224 -0.91365606 -0.14455895
0.35777903 -0.24151164 -0.2855039 -0.18750213 -0.040510062 -0.011400629 -0.34180853 -0.1806178
0.060323115 -0.20313758 -0.2088718 -0.003312587 0.1698982 -0.33336204 -0.42828926 -0.11565105
0.22598384 -0.18577975 0.2673889 -0.9770494 -0.016832652 -0.09749844 -0.37040713 0.395486
-0.21953653 0.37182978 0.088924214 -0.49521673 -0.185566 0.39057767 0.23210876 0.2053821
-0.09065947 0.1835501 0.7018343 0.8256472 0.66545826 0.2864762 0.35602444 0.031671286
0.5424039 0.17388065 -0.16477598 0.68440497 -0.29763913 -0.33020172 -0.074598856 0.41013053
0.1123944 -0.36656514 0.18538745 -0.15404853 0.47761506 0.22147954 -0.52841824 -0.6443539
-0.041236162 -0.054692257 -0.39109758 0.37845322 -0.35505354 -0.4687758 -0.1849835 -0.11750285
0.02485395 0.47887313 0.7787329 -0.1561422 0.4238519 0.043688793 0.32343614 -0.42117754
-0.69477886 -0.10753482 0.21184844 0.7414209 -0.077363916 0.33018634 -0.10612691 -0.22703847
-0.17707698 -0.4786351 0.3225076 0.08211683 -0.3097547 0.115955986 -0.35291037 0.015121204
-0.40314072 -0.39440736 -0.42910904 0.14243959 -0.044812392 0.015924118 0.5022467 0.27734888
0.06216436 -0.18102399 -0.14592266 -0.10168534 -0.40776184 -0.30322668 -0.3407999 -0.17667869
0.5516435 0.45226645 -0.5614848 0.23772079 0.08553847 -0.28146967 -0.41950154 0.23525447
-0.78903884 -0.098068185 0.0058520637 -0.022842905 -0.10186628 1.3816922 -0.270332 0.6119186
0.8583284 0.030390201 0.2377156 -0.1450275 0.07181951 0.102607355 -0.12693761 0.09174458
-0.3247331 -0.52880085 -0.44350007 0.24544066 -0.43055162 0.49771816 0.2424956 0.5008208
1.0849922 -0.13572009 0.58438605 0.67913985 0.4507625 -0.17286073 -0.03655896 0.5860313
0.6060755 0.39157242 0.3362799 0.07911278 -1.0759826 0.52874887 -0.32350484 -0.23734657
0.43935487 -0.06991738 0.42402712 0.09243423 -0.3871805 0.3205897 0.09815166 0.45598242
0.26188618 -0.22844052 0.13940395 0.13720818 0.093989246 0.23455872 -0.0051724184 0.35380563
0.22944663 0.30637178 0.56677186 -0.054909308 0.009316567 0.11990015 -0.3337383 -0.05833775
1.1459777 -0.11749862 0.25402474 -0.9970159 0.25701463 -0.64538485 0.04871451 -0.22165744
-0.21481258 -0.2553804 0.3066233 -0.046278697 -0.44570377 -0.06603641 -0.6626722 0.07354597
0.42118654 0.23110951 0.11351323 -0.021851094 0.028986312 -0.08066627 -0.11071332 -0.28049377
-0.09681386 0.27887177 0.12260445 0.0774839 0.17340653 0.17601345 0.060018037 0.14046387
-0.46176526 -0.20052153 -0.26337114 -0.044417623 -0.3592221 0.24853988 -0.23856235 0.2867668
0.08350389 -0.007696437 0.2798501 0.13280806 -0.6843561 -0.20341535 0.23648016 0.26388445
-0.13231917 0.71604407 0.046662983 0.3209576 -0.1508111 0.23376445 -0.06475548 0.10868901
-0.0980672 0.07061329 -0.57246286 -0.0845901 -0.30024293 -0.30607364 0.20932692 0.36899686

policy_network.2.bias f4 [256]
00000000: 4cde 743c 3a05 af3c c994 68bd 6436 4fbd
00000010: 9a44 9b3c 154c df3c a087 a73d bc68 a33d
00000020: bd3d b8bd 0150 e43c e54b 8a3d 2461 6d3d
00000030: dc40 19bd 66be 36bd de3a b23d d4d3 8abd
00000040: e657 2a3d c72f 93bc cb76 a83d 76a5 57bd
00000050: 545d c7bc 0cc5 96bd b4f0 cb3d 5d5c 673d
00000060: 38f7 a33d b081 c4bc 9759 a63d 6eac 7f3d
00000070: 22e7 0bbd aabb f9bc 714c 9b3c 09fd 6cbc
00000080: e744 c33d 746a 533d 7e69 98bd b264 203d
00000090: e20b a93c e1b0 20bd f290 93bb 42ab c8bd
000000a0: 6694 8a3d 1086 023d c243 3e3d 5ae5 3d3c
000000b0: 2675 75bd 3d44 adbd b4ed 8ebd 48fc 323d
000000c0: 0a81 e1bd d42f d53b 9ffb dc3c ee23 a7bd
000000d0: f43a d2bc fc82 57bd 95a3 173c 0d66 0abc
000000e0: 2b9a 763d dd37 c6bd 20d9 3e3d 2dcc 92bc
000000f0: cb24 913d 3632 23bd 9708 a53b 06ef 30bd
00000100: 4401 b23d c8a2 353d f6d6 cebd 36cc ab3d
00000110: d468 28bd f8d7 573b 8163 b0bd dedd 85ba
00000120: 4a2c c6bc 5ec4 0dbd 7d60 64bd 3ce8 123d
00000130: 6d55 c1bc 74d2 873d 1a80 943c 9512 823d
00000140: f2b3 433d d4d6 e1bd 858e 81bd 3eaf 3d3d
00000150: 6874 3b3d 9e4f 15bd 6b30 e7bc bd74 0b3d
00000160: 1384 b0bd 932d 03bd 5226 b6bd fb64 eb3c
00000170: 491a 813b dd6f 373d 791f 943d 3de0 debd
00000180: aeae bcbd d9a8 b93d f302 89bc 4331 813d
00000190: a2e5 60bd f7d2 043d c121 85bd 76d3 98bd
000001a0: 694e c63c ee6d 8d3d d510 99bd 73e8 febb
000001b0: 300e 80bd 06e2 ebbc 63fb c0bb 2935 953d
000001c0: a83f c73d c809 9e3c f3df 983c 5a7b a1bd
000001d0: ed91 713d 9c2b 86bd ec3b 98bd a2bd a0bd
000001e0: 4c0b e2bd eb3a 293d 282f 07bd d7d9 693c
000001f0: 5c64 33bc 8307 82bd fdf3 b4bc 0378 44bd
00000200: 95bc 953c 2119 d8bb 80b9 9d3d c7d7 14bc
00000210: d1bf 67bd f931 5d3b ce9f 5e3d 33ff 46bc
00000220: 91cc adbd ba82 db3c c1ae 45bd 51d2 20bc
00000230: bf1d 91bc 3225 1cbd 94b0 5d3d 08ee 2d3d
00000240: fb1e 503d ff04 e4bc 259d ba3c 2f18 6dbd
00000250: 6c19 553a 63fa 53bd 1e03 d93c 92c8 b03c
00000260: 299c cabd 3483 713d 1b8a abbc dcfd 753d
00000270: 407a aabd 19ef 3abd d3eb 47bd 3fc2 733d
00000280: 0aa8 12bd 89ec 64bb f622 8abd bdf0 94bd
00000290: cf15 f33c 9a86 31bd f0be 7cbd b06a aabd
000002a0: 64b4 0a3a 3dc5 31bd eeaf c33d bb16 0c3d
000002b0: be64 25bd 8aec a9bc 29e8 32bd 44d5 d9bc
000002c0: 0865 f5bc 4a35 ffbc 5220 80bc 89cd c4bc
000002d0: 6112 c4bc 0f79 8f3c 6267 0cbc 3076 6b3d
000002e0: b541 b9bd 254a 7b3d 2624 a0bd 5b9e f1bc
000002f0: d4ce 69bd 9a21 573d 0394 8abd afc3 93bd
00000300: 50a5 b13b 391b 39bd 057e 6dbd b8a4 653d
00000310: d4ad 923d 7be3 69bc 2019 fdbc 0f52 023d
00000320: 3256 ac3d 91db 633d 0bd2 b63c 4a07 313d
00000330: 1987 5dbd c802 6c3d 22a9 543c 6382 cd3c
00000340: bdd5 4b3d e2e3 b43b c2dc 8a3c 1836 3b3c
00000350: 0e8f 95bd a6ef 44bd c187 abbc 66da 2a3b
00000360: 9855 a7bd 2a97 c23c 473f 8b3d b923 a6bc
00000370: cc53 5bbd fee5 37bd daec be3d 4bc0 b7bd
00000380: 5385 aa3d 06a8 42bd ca5b 95bd 3e39 9f3d
00000390: b986 3fbb c106 b13d 597c 4c3c 6e99 6fbd
000003a0: dc95 11bc 1a9e 62bd 4d95 bb3d ee63 223d
000003b0: 6c46 4f3d ffac babd 82ea 8ebd 6359 6b3d
000003c0: 439c 96bc 3baa bbbd 686a 72bd 40ab 5cbd
000003d0: b4b8 8bbd 6657 0d3d ad8c 59bd 15c7 19bb
000003e0: f4d2 873d a2f5 3cbd f489 43bc 6326 303d
000003f0: 7f3f 1abd 6d2e 29bb 6c7b 9a3d ee54 eb3c
0.014945578 0.021364797 -0.056782518 -0.05058898 0.01895361 0.027257958 0.08180165 0.07978961
-0.08996151 0.02787018 0.06752757 0.05795397 -0.03741537 -0.04461517 0.08702634 -0.06778684
0.041587733 -0.017967118 0.08225783 -0.05264803 -0.024336495 -0.073618025 0.0995802 0.05648457
0.080061376 -0.023987621 0.08122557 0.0624203 -0.034155972 -0.030484993 0.018957349 -0.014464625
0.095346265 0.051615193 -0.07441996 0.03915853 0.020635549 -0.039231185 -0.004503363 -0.0979829
0.06766586 0.031866133 0.046451338 0.011590326 -0.059926175 -0.08460281 -0.06978932 0.043697625
-0.110109404 0.0065059457 0.026975451 -0.0816115 -0.025662877 -0.05261515 0.00925531 -0.008447182
0.06020562 -0.09678624 0.046593785 -0.017919624 0.07087096 -0.039842807 0.0050364244 -0.0431967
0.08691648 0.044344693 -0.10099594 0.083885595 -0.041115597 0.0032935124 -0.08612729 -0.0010213216
-0.02419104 -0.0346111 -0.05575608 0.035866007 -0.023600304 0.066319376 0.01812749 0.063512005
0.04777903 -0.11027303 -0.063260116 0.046309702 0.04576531 -0.036452882 -0.02822133 0.034046877
-0.08618941 -0.032025885 -0.08894028 0.028734675 0.003939901 0.044784416 0.072325654 -0.10882614
-0.09213005 0.09065408 -0.01672504 0.06308224 -0.054906495 0.032427754 -0.06500579 -0.07462208
0.02420731 0.06905733 -0.074739136 -0.007779175 -0.06252706 -0.0287943 -0.0058893426 0.0728553
0.09728938 0.019291773 0.018661475 -0.078848556 0.058977056 -0.065512866 -0.07433304 -0.078486696
-0.11037311 0.041315954 -0.033003956 0.0142731285 -0.0109492205 -0.06349089 -0.022088999 -0.047966015
0.0182784 -0.0065947925 0.07701397 -0.009084648 -0.056579415 0.003375171 0.05435162 -0.012145805
-0.084862836 0.026795734 -0.04826236 -0.009815768 -0.01771438 -0.03812141 0.054123476 0.042463332
0.050810795 -0.027834414 0.02278001 -0.05788439 0.00081290933 -0.05175246 0.026490744 0.021580014
-0.098930664 0.058963016 -0.020939877 0.060056552 -0.083240986 -0.045638178 -0.048808884 0.05951142
-0.035804786 -0.0034931025 -0.067449495 -0.0727248 0.029673485 -0.043341257 -0.06170553 -0.0832113
0.00052911625 -0.04340099 0.0955504 0.034201365 -0.04037928 -0.020742673 -0.043678436 -0.02659095
-0.029955402 -0.03115334 -0.015640412 -0.024023788 -0.023934545 0.01751378 -0.00856957 0.05748576
-0.09045736 0.061350007 -0.07819395 -0.029494455 -0.057082012 0.05252228 -0.06766512 -0.07215058
0.005421318 -0.045191977 -0.05798151 0.05606529 0.07162061 -0.014275427 -0.03089577 0.03181654
0.08414878 0.055629317 0.022316953 0.043219842 -0.054083917 0.05761984 0.0129797775 0.025086587
0.049764384 0.00552033 0.016950969 0.011426471 -0.07302676 -0.04808011 -0.020938756 0.0026070117
-0.081706226 0.023753721 0.067991786 -0.020280706 -0.05354671 -0.044897072 0.093225196 -0.08972224
0.08326211 -0.04752352 -0.07292898 0.0777459 -0.0029224588 0.08643866 0.012480819 -0.05849593
-0.008885827 -0.05532656 0.09159336 0.03964608 0.05060427 -0.09115028 -0.069783226 0.057458293
-0.018385058 -0.09163328 -0.05918351 -0.053874254 -0.06822339 0.034507178 -0.053112675 -0.002346461
0.06632033 -0.04613269 -0.011934746 0.04300536 -0.03765821 -0.0025815025 0.07543072 0.028727021

policy_network.3.weight f4 [256]
00000000: e641 ee3b 61f6 2c3e 42da 803e 6f50 d23e
00000010: 2ea0 1d3c 166d 4d3b 994f 1dbe 2814 7dbd
00000020: e283 883d 75cc 043f c592 cd3c 10aa 8dbd
00000030: e72b db3d b0da d33c 5aeb d9bc 7ce4 193d
00000040: 08c4 11be 35b8 81bc d4fd 02bd 2603 80bd
00000050: 55b9 08be 52c6 56bd aa65 043c 10a6 1dbe
00000060: c19e bd3d 7be9 3dbd e49e 813d c6ea 4d3e
00000070: 191a 923d 65db f8bc 6ac4 e1bd 73a3 1cbe
00000080: 5c42 62be 907c 763c 4f02 a8ba 6300 4f3c
00000090: b0a3 5e3a e814 2c3c cbf2 253f 8aed 903c
000000a0: d30e 2d3c 8c75 633d d525 cabe 074b 17bd
000000b0: edb1 c5bc d9a7 5bbd 9cc2 1cbe 1b02 86bc
000000c0: b142 67be ebd6 21be 0ea3 6d3e 71d1 1d3d
000000d0: 1ef6 2cbe 969a bdba 59a9 713d 93e1 88bd
000000e0: 4e04 d23d 5b4d 003f ffb7 16bd 3e3c 083d
000000f0: 21ea c83c 5798 20be e001 4c3d 95e0 c8bd
00000100: fcc5 14be 5234 bc3d 009c 6fbd 69ab 1c3f
00000110: 5ab0 fd3c 0cb7 fd3c 1d7a 893e da88 6a3b
00000120: a7b1 033d dce1 5ebe 86ac c3bd 4905 f3bc
00000130: f260 b53c ccab a0be 7956 6b3d d1d7 febd
00000140: f2ad b43d 17d1 16be a0d6 ec3c 09f9 0a3c
00000150: 48f9 1e3d 3744 49be 23f5 84bd 7820 a2bd
00000160: ffae 5c3e c31d 39be 9f3f 2a3d c4ac 8abe
00000170: baff 5ebe 0046 a93e 5d43 40be 08d9 afbe
00000180: decb 13be 0e62 3c3f d790 0cbd 7e04 d73d
00000190: 299b 9bbc 23aa 1cbe 71b9 153d 77fc 343e
000001a0: 010f 483d a890 1ebe 509b ae3e cf75 b2bc
000001b0: d8e8 cebd 54f0 8cbd 2466 31be 56a8 b03c
000001c0: eef4 16bc 8ec6 b83e 390d f63d 144f a23d
000001d0: 1df6 52be 94e0 1abe a417 fd3d 4784 0a3a
000001e0: 42de 36ba c49e 523e 87e1 3b3d 351a 563d
000001f0: a69c dd3d 2568 75be 2288 1abe ba3b 333d
00000200: 0e6f 42bd ff8b 1c3f f888 543d 5442 5f3d
00000210: 2968 723f 433f 953b 0d18 223e d0d4 f93c
00000220: c622 fbbd 9659 3d3c 9871 f23e cff4 323d
00000230: 41f8 81bb d75a 52be 57da dc3d ac0d 63be
00000240: e08b 273d b2fd 983e 3b9b bdbd c817 99bd
00000250: 04c5 87be 6284 83be 1af5 32bd 0b25 a23c
00000260: 9b08 f8ba ae8b f33d 8ab3 75bd ae03 db3c
00000270: 2235 fbbd 8178 b8bd fe44 c9bd 8b0c a4bd
00000280: 4d36 f1be c006 113e d4aa d33c 128a c8bd
00000290: 7766 ab3c 3832 0e3f 74dc 983d 9c80 57bd
000002a0: 42ab 4dbd af53 b43e 25d0 6e3e c4fc cabe
000002b0: 26ab fc3e 622b fe3a a922 4d3e baf8 7cbe
000002c0: 818b 86be 584a 9e3d d528 b0bd 4305 06bd
000002d0: 02ad 913d c7ad b73d 5e85 68be 20ce 4dbe
000002e0: 78b0 1fbe 532d 0c3d 1711 56bd fd83 553d
000002f0: 36c7 16bd 6748 2a3d 11ce 933e 3deb bb3e
00000300: 5a51 783c 472a 97bc 31e6 433d b6d5 123d
00000310: ea0f cf3c cb9b d43a 4c23 b3be f842 87bb
00000320: b6e8 afbd 92de 97bd 77eb 2cbe 346b 313e
00000330: 2ffd 563a 42eb 9d3d c266 80be 8738 913c
00000340: 5a60 cb3d a754 50be a9aa 5dbe 4cea e23d
00000350: 7ede 4fbe 5737 ed3d 385e 8fbd a497 f53d
00000360: 82c9 66be 09ea 74bd 7fad 39be 5d2f f0bc
00000370: bc71 a93c 6d24 bbbd 1ec4 e7bb 1883 75bd
00000380: cc87 e1be 1965 24bf f7de e8bd 4c29 77bd
00000390: 5d8b 9d3d a2e9 5ebc f8e7 ca3d 6cc1 4dba
000003a0: fc10 553e f7f9 b63d 7389 a2bd 1787 433d
000003b0: 4666 aabc 1427 083f a8e7 93bd 908c aa3e
000003c0: de27 04bd 84c0 32bc e1e7 fc3d b019 bcbc
000003d0: 341f abbd 205f 26bc 93e6 ce3e ae43 543d
000003e0: f26a c0bd ec73 b9bd 339c 853e bac7 6abe
000003f0: 8138 52be 6a97 3c3d 0f79 013f 0e1c 3dbd
0.0072710393 0.16890861 0.25166517 0.4107699 0.009620709 0.0031345538 -0.15362395 -0.0617868
0.0666578 0.51874477 0.0250944 -0.069172025 0.10701733 0.025861114 -0.026601482 0.037571415
-0.14234936 -0.015834907 -0.03198035 -0.062506005 -0.13351949 -0.052435227 0.008080879 -0.15395379
0.092587955 -0.046365242 0.06329134 0.2010909 0.07133884 -0.030378053 -0.11023791 -0.15296726
-0.22095627 0.015044346 -0.0012818071 0.01263437 0.0008493019 0.010503031 0.648236 0.017691392
0.010562616 0.055532023 -0.3948199 -0.036936786 -0.024132693 -0.05362687 -0.15308613 -0.016358426
-0.22584035 -0.15804641 0.23206732 0.038529817 -0.16890761 -0.0014465626 0.058999393 -0.0668365
0.10254727 0.50118035 -0.036796566 0.033260576 0.024525704 -0.15683113 0.049806476 -0.098084606
-0.1452865 0.09189667 -0.058498383 0.6119905 0.03096788 0.030971073 0.26850978 0.0035787136
0.032151844 -0.21765846 -0.095543906 -0.029665606 0.022140954 -0.3138107 0.057455514 -0.124435075
0.0882224 -0.14728199 0.028910935 0.008482226 0.038811952 -0.19654928 -0.064920686 -0.07916349
0.2155113 -0.1807776 0.04156458 -0.27084935 -0.2177724 0.33061218 -0.18775697 -0.3434527
-0.14433238 0.7358712 -0.034317818 0.10498904 -0.018994885 -0.15299277 0.036553804 0.17674433
0.048842434 -0.1548487 0.3410287 -0.021784691 -0.10103005 -0.068817765 -0.1732412 0.021564644
-0.009213669 0.36088985 0.12014241 0.07925239 -0.20601697 -0.15124732 0.12358025 0.0005283993
-0.0006975868 0.20568377 0.045869377 0.052271087 0.10820894 -0.23965509 -0.15090993 0.04375813
-0.04746919 0.6115112 0.051888436 0.054506615 0.94690186 0.0045546605 0.15829487 0.030496985
-0.12262492 0.0115570035 0.4735229 0.0436905 -0.0039663617 -0.20542465 0.107838325 -0.22173184
0.04090488 0.29881054 -0.092581235 -0.07475239 -0.26517498 -0.25686938 -0.04369078 0.019793054
-0.0018923463 0.11891876 -0.059985675 0.026735153 -0.12265994 -0.09007359 -0.09827612 -0.08010205
-0.4711174 0.14162731 0.025838293 -0.0979196 0.020922882 0.5554538 0.07463923 -0.052612886
-0.050212152 0.35220096 0.23321588 -0.3964597 0.49349326 0.0019391591 0.20032753 -0.24704257
-0.26278308 0.07729024 -0.08601538 -0.03271986 0.07113077 0.08968692 -0.22707126 -0.20098162
-0.15594661 0.034222912 -0.052262392 0.052127827 -0.036811076 0.041572955 0.28868154 0.3670291
0.0151561145 -0.018452777 0.04782695 0.035848342 0.025276143 0.0016220746 -0.34987867 -0.0041278563
-0.08589308 -0.07415499 -0.16886698 0.17326051 0.00082011794 0.077108875 -0.25078398 0.01772715
0.09930487 -0.20344792 -0.21647133 0.11079845 -0.20299718 0.11582821 -0.07000393 0.11991814
-0.22537807 -0.059793506 -0.1813259 -0.02931946 0.020684116 -0.09137807 -0.0070729395 -0.059939474
-0.44048917 -0.6421676 -0.11370652 -0.06034212 0.07692597 -0.013605507 0.09907526 -0.00078489515
0.2080726 0.08934396 -0.079363726 0.047736254 -0.02080072 0.5318463 -0.07221919 0.33310366
-0.032264583 -0.010910157 0.12348915 -0.022961468 -0.08355561 -0.0101545155 0.4041029 0.051822357
-0.09395398 -0.090553135 0.26095733 -0.22927752 -0.20529367 0.046042837 0.50575346 -0.046169333

policy_network.3.bias f4 [256]
00000000: 2ee8 c5bd e807 95bc e8ff 3e3e b4ae af3c
00000010: f861 f03d 74f8 d23d d7ce d33e da5e babc
00000020: e091 b63b 5d0f 6e3d 2bac 0e3d 2325 c2bc
00000030: eabd 17bc 99e8 fabc ee53 1d3a ab78 8fbb
00000040: a16e b63e 6b0d 25bd 5758 983c d9bc 01bf
00000050: c69e 7abd 7ff0 0c3d b890 5c3d be00 b53e
00000060: 6fcb fb3c 7464 dfbd f36d c83d 4e1a bc3d
00000070: 3930 44ba 024e f1be c8be 693b 6f31 aebe
00000080: 240a 803e 4008 483b 8dc6 d0bc c982 afbb
00000090: 898c 44bc 56c1 9d3d 4486 f8bd fc89 79bc
000000a0: 9df3 89bb 62af 17bc a997 6a3d f780 9b3c
000000b0: 0958 9dbd 0a9c 5e3d d22e b83e def1 c5bc
000000c0: 6d66 3d3e 2ce3 b1be d419 003e bb28 93bc
000000d0: 83af b93e b9f5 80bc ed09 6a3d c181 b7bc
000000e0: 97a3 683c 1944 55bd 07ef 223d 5ff3 2a3f
000000f0: 8e16 23bf 21b5 b03e 458a 54bd 045f a03d
00000100: 5d15 933d 2b56 c33c cb40 60bd 0e91 b63d
00000110: 0dfb e53c b919 753c 0ca2 8e3b c784 f2bc
00000120: b268 a53c 70a1 a23e a1b2 b23a 092f 9bbb
00000130: 2b28 e13e a272 80be e914 153d bbf1 113f
00000140: 5f88 f4be fa03 ff3c 4d74 e13e 1803 fcbb
00000150: 65c6 663d bb2b c23e 919e d53c 33e9 693d
00000160: 56a4 3e3c fa68 9bbe 0315 23bf ddbd 34be
00000170: 9e17 063e c49f e3bd ab3c 92be dc95 073e
00000180: ffc4 b83e 0f8c 03be b168 3cbd ddae 6abc
00000190: 6d7b adba ddf3 a3be 580a 23bd 7f8e 4f3c
000001a0: e638 05be e9ff abbe f6cd 213c cb01 26bd
000001b0: 4aa7 f6be 3a84 95bc 492b b13e 17ab 933d
000001c0: d444 fb3c ce34 9c3c 1097 2ebf 5702 20bf
000001d0: 98d8 89be 85d8 8c3e ccf6 6abc 2c39 f33d
000001e0: cc3c 14bd 451a bf3c 9aac 96bd 0fac 06bd
000001f0: 5502 8cbc 7b52 33be b113 d33e cbd2 49bc
00000200: 27e6 f0bc f4f0 b5bd d7e9 18bf 506a 713c
00000210: 0be5 d3bd 8209 fdbc 7feb 0fbc 3d96 1c3d
00000220: ccc1 c4be e619 933c 26ad 103d 4146 6e3d
00000230: 8349 edbe 39f5 8b3e 9da4 01ba 21eb e8bd
00000240: 4345 ee3e 1cfe 5cbb 7ece 233d 0637 b1bc
00000250: 4691 3f3d 5250 2c3e e638 a93d de78 11bf
00000260: 19f6 49bd 949b 8d3a 8511 99bd f8d7 76bc
00000270: 7bf0 d3be 0c12 9e3b 3aab 08bc 872f 8cbc
00000280: ecf2 afbb d2db a93c 7bdb 1abf 3500 efbe
00000290: 9128 173d bb21 8cbd 6d89 c23c 34a7 a03d
000002a0: fac6 b3bc 1cbb 893c d589 0abc 503d 7fbe
000002b0: 9443 50bd ab2d 2d3f 6024 88bc bef4 97bd
000002c0: 8deb 703e b2ff d83c 607e a13d 0687 043f
000002d0: e437 fa3c 161c d13e 5a92 2e3e 79f4 a73e
000002e0: 6093 adbe b1fa b1bc 7468 9dbb 1e94 5c3c
000002f0: 7e78 0abc 68af 13bd 39cb 69be a5ea 7f3d
00000300: 279d 9a3b 88ec 11bd 432b 9ebc aa36 dd3e
00000310: 7c3c 223d 7c93 1abf c921 a73d 10e7 1f3f
00000320: bbbd 6cbd 198f c33c 9419 81be 8b6b cbbd
00000330: 3b7e 923d e2c1 123c ec07 11bd b207 ccbb
00000340: 76f3 a0bc 3be6 bbbd 9bea 66be 89c3 49bc
00000350: a9ce cdbd 749d a83a a7b9 0b3f 9fb3 57bf
00000360: 5c4a 0e3e 628e 71bb 67e1 a6be b8a3 d03d
00000370: fe29 133d 7d45 6ebc c8be f8bc 790e 7b3d
00000380: c1fd ce3d ab50 c83c 2c28 4abb ac79 5dbc
00000390: e5c9 2ebf 17a5 1fbf b7d8 21bf a606 80bc
000003a0: 259a 3abc 12ec 293f 1a55 2ebd 2700 1f3d
000003b0: d216 063d ed1a 7dbd 7989 593b 0115 6bbc
000003c0: 00c1 eeba ffd1 17bd 9c6d 973c 7e39 26bc
000003d0: 85aa ea3b fc48 773c 7f8f ea3c e6d9 41bc
000003e0: c2da 6a3b 374a 4a3b f3ed 0cbd b3db 24be
000003f0: 0582 ad3d 3a22 a83d 31ea 74bd 24e4 c53b
-0.096634254 -0.018192247 0.18652308 0.02144561 0.11737436 0.10301295 0.41368744 -0.022750307
0.005571589 0.05812012 0.03483216 -0.023699349 -0.009261588 -0.03062849 0.0006001581 -0.0043783984
0.35631278 -0.040296 0.018596811 -0.50678784 -0.061186574 0.034409042 0.053848952 0.3535213
0.030736653 -0.10907832 0.09786596 0.09184705 -0.00074839924 -0.47129828 0.0035666693 -0.3402209
0.25007737 0.0030522496 -0.025485301 -0.005356167 -0.011996397 0.077028915 -0.12134984 -0.015230652
-0.004209949 -0.009258123 0.05727354 0.018982394 -0.07682807 0.05434803 0.3597322 -0.024163183
0.18496104 -0.3474363 0.12509853 -0.017963758 0.36266717 -0.01574217 0.057138372 -0.022400739
0.014199159 -0.052066896 0.039778735 0.66777605 -0.6370629 0.3451319 -0.051889677 0.07830623
0.07181809 0.023844799 -0.05474929 0.08914386 0.028073812 0.014959746 0.0043528136 -0.029604329
0.020191524 0.31763792 0.0013633558 -0.0047358316 0.43975958 -0.25087458 0.036396895 0.57009476
-0.47760293 0.031129826 0.44034043 -0.0076907985 0.056341548 0.3792399 0.026076587 0.05710716
0.01163586 -0.30353528 -0.63703936 -0.17650552 0.13094947 -0.11114457 -0.2856191 0.1324076
0.36087796 -0.12846397 -0.04599828 -0.014323917 -0.0013235636 -0.3202199 -0.039804786 0.012668251
-0.13009986 -0.3359368 0.009875765 -0.040529054 -0.48174506 -0.018251527 0.34603336 0.07210367
0.030672468 0.019068148 -0.68199253 -0.6250357 -0.2692306 0.2750894 -0.0143410675 0.11876139
-0.036190793 0.023327956 -0.0735714 -0.03287893 -0.017090956 -0.17511933 0.4122596 -0.012318323
-0.02940662 -0.08883849 -0.5973181 0.0147348195 -0.10346421 -0.030888323 -0.008784174 0.038229216
-0.38429105 0.017956685 0.035321377 0.058172468 -0.46345147 0.27335528 -0.0004945489 -0.11372972
0.46537217 -0.0033720797 0.03999185 -0.021632683 0.046769403 0.16827515 0.08262806 -0.56825054
-0.049306963 0.0010803812 -0.07474045 -0.015066139 -0.4139441 0.0048239287 -0.008341605 -0.017112507
-0.0053695347 0.020734701 -0.6049115 -0.46679845 0.03690392 -0.06842371 0.02374717 0.078443915
-0.021945465 0.016812854 -0.008455713 -0.24925733 -0.050845698 0.6764781 -0.016618907 -0.07419728
0.23527355 0.026489113 0.07885432 0.5176853 0.030544229 0.4084174 0.17048016 0.32803705
-0.339015 -0.021725984 -0.0048037115 0.013463048 -0.008451579 -0.036055952 -0.2283143 0.062479634
0.004718441 -0.035625964 -0.019307738 0.43205768 0.039608464 -0.60381293 0.08160741 0.6246195
-0.05779813 0.023871945 -0.25214827 -0.099326216 0.07152983 0.008957358 -0.035407946 -0.0062265033
-0.019647341 -0.09174772 -0.22550432 -0.012314686 -0.10049183 0.0012864308 0.5458016 -0.84258455
0.13895553 -0.0036858548 -0.32593843 0.10187477 0.03592872 -0.0145429345 -0.03036441 0.0612931
0.101069935 0.024452528 -0.0030846698 -0.013517778 -0.68276817 -0.6236128 -0.63221306 -0.01562817
-0.01138929 0.6637584 -0.042561628 0.038818505 0.032736607 -0.061793257 0.0033193512 -0.014348269
-0.0018215477 -0.037065502 0.018484883 -0.010145543 0.007161441 0.015093084 0.028632877 -0.011831736
0.0035835956 0.003086699 -0.034406614 -0.16099434 0.08472065 0.08209653 -0.059793655 0.0060391594
