Results/KSS/DeepRL; BEGIN_DATE(None); END_DATE(None); SPLIT_POINT(2018-01-01); BATCH_SIZE16; GAMMA0.9; REPLAY_MEMORY_SIZE32; TARGET_UPDATE5; N_STEP8/model.pkl (torch, 148533 bytes, 14 tensors)

policy_network.0.weight f4 [128, 4]
0.7264252 0.34342015 -0.10604336 -1.016993 -0.32486004 -0.78557825 0.15410547 -2.1075506
0.31017232 0.8939743 0.17157733 -2.627776 -0.8407686 0.31600916 -0.50466454 1.5662307
-0.29543674 -0.7576554 0.23825763 -2.438433 0.37720948 -0.047069915 -0.2333373 -1.2901622
0.11266042 1.0815601 -1.082135 0.2792414 -0.5160981 -1.2429508 0.6632968 -1.5715791
0.3453176 -0.3785907 -0.23877165 -1.1545918 -0.92709494 -0.7009315 0.9399158 0.6253166
-0.33064035 0.5728837 0.19864096 1.4665664 -0.1757913 -0.6784292 0.82065916 -0.8356176
-0.55055016 -1.0537515 0.34743106 1.2857555 -0.47682828 0.4390622 0.5265961 0.92963445
-0.013094787 1.0438226 -0.66347843 0.13990463 -0.5100497 -0.11264163 1.1168479 -0.43336323
0.5932952 0.38991937 0.018107275 -1.0764285 -0.7670612 -0.1270725 0.59455395 1.1464478
-0.17218623 0.42131668 -0.062252827 1.1852258 -0.047162436 1.1078403 -0.8567857 0.12980843
1.09817 -0.06696762 -0.99891126 -1.2252234 0.58896 0.51504475 -1.2450223 0.6130518
-0.15260078 -0.7603905 -0.10354013 1.8621923 -0.46159655 0.82859254 0.15283 1.42988
0.20761947 0.9011652 0.8157238 1.350146 0.4758307 0.12897988 -1.9451636 0.4412488
-0.35432994 -0.2940028 0.27956063 -1.2781763 0.41003937 -0.4287348 -0.2552011 -2.8393443
0.031802103 -2.1034598 0.18062906 -1.1859479 0.5347917 1.3504857 -0.72240406 0.0145751
-0.4319975 -0.29198942 -0.0014210526 2.1605241 0.09925059 -0.74377424 -1.0292199 -0.5126964
-0.5835427 -1.0903898 -0.11483577 -0.005242951 -0.06270734 -1.0357302 1.661029 -0.18936254
-0.6397006 0.7427498 -0.094770625 0.74817586 -0.32039735 0.43162426 0.15772034 4.1385636
0.040330548 0.9830689 -0.14662375 2.8656936 -0.14204554 0.36586723 0.13913296 4.0701036
0.15789075 -0.7839238 -0.32824954 -1.0819204 0.5612562 0.77546877 -0.25333053 -2.2085443
-0.41001862 -0.4782296 0.3889013 0.8196068 -0.38977277 1.1784586 -0.26950023 -0.19139008
-0.0278421 0.5428177 -0.25230077 0.9949789 -0.848252 -0.78065103 0.28267226 0.6670162
-0.27073535 0.20492345 0.22581579 1.3360105 -0.18467164 0.281379 0.19547667 1.2963228
0.24938846 0.7826575 0.047860093 -1.8424398 -0.3568155 1.0539508 0.32199818 2.9880323
-0.24364106 -0.41918415 0.0710001 -3.0537179 0.08891591 1.617259 -0.19045226 1.6515262
0.41484445 -0.12623133 -0.26695535 -1.2918767 0.34287107 1.0826404 -0.4320628 -0.6113625
0.6174492 0.67552066 -0.3681384 -0.9917331 -0.1046762 -0.46878877 0.19932647 -3.9383714
0.15340465 0.45211896 -0.4646329 0.98655486 -0.13051103 1.8105528 0.1388188 1.4362769
0.5344087 -0.79014814 -0.29503086 -0.8887869 -0.4431496 0.59132534 0.34084117 1.2025262
0.02667773 -1.4241627 0.05275649 -0.37821868 0.20075148 -0.14643742 0.117553145 1.4740015
-0.25945243 0.008082512 -0.2477598 1.358717 0.4469047 -0.32272676 0.25079504 -1.0735943
-0.93427145 -0.44529274 1.1444691 1.0123924 -0.44441506 0.75424385 1.3960723 -0.20000651
00000000: 00f7 393f c4d4 af3e 432d d9bd d42c 82bf
00000010: 0e54 a6be a81b 49bf d3cd 1d3e 1ce2 06c0
00000020: e8ce 9e3e 80db 643f f8b1 2f3e 7b2d 28c0
00000030: 9c3c 57bf f4cb a13e b231 01bf 3f7a c83f
00000040: 7c43 97be b4f5 41bf cff9 733e 490f 1cc0
00000050: 9a21 c13e 62cc 40bd f9ef 6ebe 0924 a5bf
00000060: 82ba e63d 9070 8a3f 6683 8abf bbf8 8e3e
00000070: 011f 04bf 0319 9fbf d2cd 293f 8129 c9bf
00000080: 78cd b03e a4d6 c1be 8e80 74be aac9 93bf
00000090: 1856 6dbf 3f70 33bf 529e 703f c014 203f
000000a0: b149 a9be 82a8 123f 8968 4b3e 73b8 bb3f
000000b0: a202 34be 89ad 2dbf b816 523f 09eb 55bf
000000c0: dbf0 0cbf 54e1 86bf 7ce2 b13e a393 a43f
000000d0: d622 f4be c3cc e03e 01cf 063f 86fc 6d3f
000000e0: 848b 56bc fb9b 853f b9d9 29bf 2943 0f3e
000000f0: 9e92 02bf a8b0 e6bd dff4 8e3f c9e1 ddbe
00000100: 32e2 173f 83a3 c73e b555 943c 69c8 89bf
00000110: 1f5e 44bf 4b1f 02be b034 183f cdbe 923f
00000120: 9651 30be d2b6 d73e d2fc 7ebd 7bb5 973f
00000130: 662d 41bd b6cd 8d3f 4f56 5bbf 80ec 043e
00000140: d690 8c3f 5226 89bd a6b8 7fbf 1fd4 9cbf
00000150: 15c6 163f f9d9 033f e45c 9fbf f6f0 1c3f
00000160: 6143 1cbe f4a8 42bf d90c d4bd 515c ee3f
00000170: 6256 ecbe a41e 543f 787f 1c3e 4f06 b73f
00000180: 339a 543e c3b2 663f 46d3 503f 96d1 ac3f
00000190: 15a0 f33e 4d13 043e 1ffb f8bf 5deb e13e
000001a0: bc6a b5be 8987 96be 9222 8f3e 489b a3bf
000001b0: aef0 d13e 2183 dbbe b8a9 82be d1b7 35c0
000001c0: ec42 023d 169f 06c0 d3f6 383e 24cd 97bf
000001d0: 1ce8 083f b7dc ac3f 79ef 38bf 66cc 6e3c
000001e0: c72e ddbe a37f 95be 9d42 baba 0746 0a40
000001f0: e543 cb3d fd67 3ebf 7abd 83bf 1240 03bf
00000200: 0e63 15bf e591 8bbf 042f ebbd 10cd abbb
00000210: b56c 80bd cf92 84bf 999c d43f 41e8 41be
00000220: 6bc3 23bf da24 3e3f 1a17 c2bd 7488 3f3f
00000230: 1f0b a4be dbfd dc3e 7181 213e 1d6f 8440
00000240: a531 253d 67aa 7b3f 8924 16be 8667 3740
00000250: 6374 11be f352 bb3e df78 0e3e 4a3e 8240
00000260: 1dae 213e 3baf 48bf 5310 a8be 5e7c 8abf
00000270: 7cae 0f3f 1f85 463f 8ab4 81be ca58 0dc0
00000280: f6ed d1be 83da f4be 121e c73e c0d1 513f
00000290: 4c90 c7be bbd7 963f effb 89be c3fb 43be
000002a0: 1e15 e4bc 1af6 0a3f 912d 81be f0b6 7e3f
000002b0: 0b27 59bf bfd8 47bf 6bba 903e 93c1 2a3f
000002c0: d39d 8abe 74d7 513e 413c 673e 6402 ab3f
000002d0: 901a 3dbe e910 903e 092b 483e e8ed a53f
000002e0: b05f 7f3e 3e5c 483f f208 443d 11d5 ebbf
000002f0: 85b0 b6be dce7 863f f2dc a43e ec3b 3f40
00000300: 0b7d 79be 4e9f d6be 8068 913d 1d70 43c0
00000310: 8b19 b63d 5802 cf3f eb05 43be 3665 d33f
00000320: 7e66 d43e c942 01be 5fae 88be 375c a5bf
00000330: cc8c af3e f693 8a3f 5637 ddbe 4182 1cbf
00000340: 2711 1e3f ecee 2c3f a37c bcbe 38e2 7dbf
00000350: 7a60 d6bd 1505 f0be 3d1c 4c3e 470e 7cc0
00000360: 1c16 1d3e 237c e73e 5de4 edbe dc8e 7c3f
00000370: afa4 05be 32c0 e73f 8426 0e3e ecd7 b73f
00000380: 02cf 083f 2647 4abf 490e 97be 8a87 63bf
00000390: 81e4 e2be 1961 173f bc82 ae3e 61ec 993f
000003a0: 418b da3c f74a b6bf 3017 583d e1a5 c1be
000003b0: cc91 4d3e b1f3 15be b4bf f03d 15ac bc3f
000003c0: f3d6 84be 836c 043c bfb4 7dbe 70ea ad3f
000003d0: b1d0 e43e 713c a5be 3568 803e 8a6b 89bf
000003e0: 6a2c 6fbf 69fd e3be f77d 923f 1396 813f
000003f0: 5f8a e3be 2016 413f 7fb2 b23f 82ce 4cbe

policy_network.0.bias f4 [128]
-0.3899822 0.15152664 -0.22846463 -0.24404836 -0.4325102 0.14438897 0.25395653 -0.059259925
0.10006185 0.6466397 0.7774396 0.14509618 -0.19823031 0.05216551 0.67451537 0.2614459
-0.21916929 -0.3908222 -0.4034681 0.32782215 0.06487153 0.25541025 1.0462778 -0.81299925
0.19743568 -0.45474103 0.4700048 0.058422815 -0.30803698 0.3551545 -0.6311223 -0.1360626
-0.16732226 0.18391964 -0.40471098 -0.40656552 -0.29693612 0.04121844 0.33828405 -0.46678534
0.23778255 0.050723173 -0.8056007 -0.44511908 0.40813968 -0.851263 0.7272915 0.6210715
-0.76356834 -0.25112244 0.38334188 -0.38388187 0.22753148 0.014794412 0.006654585 -0.18834622
0.8041356 0.521262 0.3641305 0.7602824 -0.6032098 -0.114821754 0.44794345 -0.45321962
0.71143675 0.05010685 -0.09095545 -0.67829484 -0.2447839 0.0363041 -0.025556851 0.1482239
-0.023211455 -0.19475907 0.29554978 0.6411264 -0.71860826 -0.08294796 -0.42369094 0.5542582
0.029748445 0.37416887 0.5909428 0.66436934 -0.0041511944 0.022854645 0.19161741 -0.33980888
-0.5158753 -0.7554298 1.112007 0.73390967 0.5349197 0.038289193 0.63844687 -0.10683868
0.11390647 0.27507493 0.6640443 1.2840439 0.8581981 -0.0064133024 0.16366619 -0.3102873
-0.46378326 -1.0482253 -0.8880428 -0.3408737 -0.585763 -0.43958512 0.4925652 -0.050716598
-0.020393578 -1.2656455 -0.37828183 1.1928029 -0.05620668 -0.44368964 0.7514555 0.07517731
0.8464946 0.17203306 0.31901813 -0.08427201 0.027361717 -0.2928088 -0.30579364 -0.09273765
00000000: bfab c7be cd29 1b3e a2f2 69be d0e7 79be
00000010: fa71 ddbe b4da 133e 9706 823e 89ba 72bd
00000020: 3aed cc3d 2e8a 253f 4806 473f 1894 143e
00000030: e3fc 4abe 80ab 553d 0aad 2c3f 3ddc 853e
00000040: ea6d 60be d919 c8be 5f93 cebe 4ed8 a73e
00000050: 5ddb 843d 22c5 823e 6eec 853f b820 50bf
00000060: 942c 4a3e d1d3 e8be 78a4 f03e c34c 6f3d
00000070: 06b7 9dbe d0d6 b53e 3b91 21bf ff53 0bbe
00000080: 8756 2bbe 6e55 3c3e 4736 cfbe 5b29 d0be
00000090: 0308 98be abd4 283d 9133 ad3e 7dfe eebe
000000a0: 457d 733e 1ac3 4f3d d93b 4ebf a6e6 e3be
000000b0: aff7 d03e 5fec 59bf c72f 3a3f 8bfe 1e3f
000000c0: 3779 43bf 1f93 80be 6345 c43e 2a8c c4be
000000d0: 03fe 683e 4364 723c b40e da3b d5dd 40be
000000e0: d5db 4d3f 6d71 053f 506f ba3e dea1 423f
000000f0: f56b 1abf ab27 ebbd d858 e53e 670c e8be
00000100: b820 363f d73c 4d3d da46 babd bba4 2dbf
00000110: a1a8 7abe 9cb3 143d 9a5c d1bc 02c8 173e
00000120: f325 bebc ec6e 47be 4d52 973e dc20 243f
00000130: b6f6 37bf 9fe0 a9bd 05ee d8be dee3 0d3f
00000140: 03b3 f33c 1093 bf3e 0748 173f 1c14 2a3f
00000150: be06 88bb aa39 bb3c 5b37 443e 6efb adbe
00000160: 6710 04bf d963 41bf 3f56 8e3f 81e1 3b3f
00000170: 7ff0 083f 21d5 1c3d 4171 233f 3dce dabd
00000180: cc47 e93d 9fd6 8c3e cffe 293f 8d5b a43f
00000190: dfb2 5b3f ae26 d2bb 1c98 273e fadd 9ebe
000001a0: 0075 edbe 3f2c 86bf c656 63bf ff86 aebe
000001b0: 90f4 15bf 4d11 e1be 8231 fc3e 35bc 4fbd
000001c0: 6f10 a7bc ac00 a2bf 28ae c1be c4ad 983f
000001d0: fa38 66bd 4a2b e3be 635f 403f 90f6 993d
000001e0: dfb3 583f 6f29 303e 5856 a33e ce96 acbd
000001f0: ae25 e03c 09eb 95be fc90 9cbe 3ded bdbd

policy_network.1.weight f4 [128]
0.79180235 0.6943337 1.4034176 -0.24813974 1.8753147 0.55131966 0.8151356 2.0109406
1.9950556 0.67919296 0.21991093 1.7828958 1.3830068 1.4983091 -0.32847264 -1.0171162
0.72230315 0.6454759 2.0348997 -0.65250343 0.80060124 -1.1310581 0.49152178 -0.34087735
-0.2889906 -0.12749465 0.92393744 0.4962042 0.6706303 3.045231 0.7576081 -0.157123
1.7556791 -0.45494416 1.6609727 1.3850411 2.4229023 1.202296 0.28975484 0.950406
0.34295824 2.1340299 1.3403152 0.057969633 1.3461919 1.0746734 1.9991009 0.3333755
1.5558697 1.2879666 1.7402878 0.27462816 0.19693469 2.4376335 1.1219219 0.2291709
0.5267491 1.0861164 0.6477623 1.3058264 -0.118261196 1.4561157 0.8978867 0.025042415
1.6499377 1.4100361 0.93749595 1.885094 -0.08101821 1.127965 1.5029472 2.3308756
1.4492674 0.9261008 1.2711986 1.8084787 -0.6917509 1.6993455 0.85259974 0.74267966
0.5283919 1.5254323 1.4349276 1.148474 1.5895274 0.16770801 1.2671256 -0.00037695206
0.5908553 -0.10296605 0.34005252 -0.36711243 -0.23854056 0.95788276 -0.07808463 0.51292986
2.6098168 0.87858063 0.9763477 1.2375615 1.8416702 1.7430607 0.61142886 0.71252275
1.7613208 1.5239025 1.5510352 0.90448236 0.77220535 0.15979049 1.0403017 -1.2636015
0.5872462 2.1009636 0.5846779 0.8495286 1.761025 1.2865663 1.7393013 0.4004583
0.7307574 1.070822 0.65045154 0.0046687885 1.6690015 0.30710992 1.86404 0.72062397
00000000: 8fb3 4a3f dabf 313f 30a3 b33f 5818 7ebe
00000010: 500a f03f 4923 0d3f baac 503f 40b3 0040
00000020: fb5d ff3f 97df 2d3f 5530 613e ee35 e43f
00000030: 5e06 b13f 98c8 bf3f 912d a8be dd30 82bf
00000040: dce8 383f e93d 253f cc3b 0240 770a 27bf
00000050: 34f4 4c3f 83c6 90bf bea8 fb3e 7a87 aebe
00000060: 93f6 93be f58d 02be 2a87 6c3f 7a0e fe3e
00000070: 6dae 2b3f 11e5 4240 9bf2 413f dae4 20be
00000080: 18ba e03f 71ee e8be c19a d43f 0749 b13f
00000090: d510 1b40 d6e4 993f bf5a 943e cf4d 733f
000000a0: 3998 af3e f293 0840 738f ab3f 9171 6d3d
000000b0: 0450 ac3f e68e 893f 8ae2 ff3f 32b0 aa3e
000000c0: bd26 c73f 17dc a43f c0c1 de3f 109c 8c3e
000000d0: 3fa9 493e 3002 1c40 239b 8f3f c7ab 6a3e
000000e0: 07d9 063f dd05 8b3f c0d3 253f 5225 a73f
000000f0: ed32 f2bd 0062 ba3f e7db 653f c025 cd3c
00000100: 2931 d33f 107c b43f bcff 6f3f c34a f13f
00000110: e0ec a5bd 2861 903f 9360 c03f 112d 1540
00000120: 9881 b93f f114 6d3f a3b6 a23f 3b7c e73f
00000130: 9616 31bf 2784 d93f fa43 5a3f 4120 3e3f
00000140: b144 073f 5e41 c33f b5ab b73f 3201 933f
00000150: a275 cb3f a6bb 2b3e 2c31 a23f a6a1 c5b9
00000160: 4b42 173f dddf d2bd 5d1b ae3e 29f6 bbbe
00000170: fa43 74be ce37 753f d6ea 9fbd 5f4f 033f
00000180: 3d07 2740 a9ea 603f ecf1 793f 6a68 9e3f
00000190: d9bb eb3f 9d1c df3f 9a86 1c3f e467 363f
000001a0: f672 e13f 3d0f c33f 5288 c63f 288c 673f
000001b0: 40af 453f 1ea0 233e 9b28 853f b2bd a1bf
000001c0: c455 163f 3076 0640 73ad 153f b57a 593f
000001d0: 4469 e13f 34ae a43f 6da1 de3f df08 cd3e
000001e0: eb12 3b3f b210 893f fe83 263f a3fc 983b
000001f0: d7a1 d53f 833d 9d3e dd98 ee3f d07a 383f

policy_network.1.bias f4 [128]
0.054333325 -0.06320446 -0.026895078 -0.0104042925 -0.11279755 -0.028865566 0.020175606 0.0392585
0.046419207 -0.026042823 0.012554139 -0.014143305 0.023608908 0.006033954 -0.0070294207 0.011948312
-0.009999849 0.0065991157 0.05773967 -0.0116615975 0.02290892 -0.021142585 -0.013005279 0.02898092
0.01050853 0.033817135 0.0074207727 0.037623674 -0.060175672 -0.002735073 0.022879165 -0.0067271823
0.011636644 0.026605377 0.023126125 0.061944224 -0.20267254 0.0173926 0.05057582 0.06304076
-0.0021596057 0.002490663 -0.013158388 0.05013085 0.007328595 0.02118017 -0.028657235 -0.013538989
-0.11229941 0.043324653 0.024744691 -0.0344506 -0.039998934 -0.1826889 0.03551316 -0.033610962
0.023849465 0.002585009 -0.009033538 -0.0071904613 0.01197529 0.031017506 -6.1005965e-05 -0.0069072596
-0.029766 0.060250837 -0.004114908 -0.043459654 -0.079364434 0.018547427 0.010263386 0.02357584
-0.055052746 0.0017899269 0.06239196 -0.0014231376 -0.043290388 0.04781228 0.020433594 -0.018190447
0.04760961 0.0026257494 0.06550627 0.010120723 0.015825178 0.006626096 -0.028599333 0.0033681334
0.04884158 -0.02028386 -0.030455 0.034209624 -0.025420303 -0.0106144305 -0.018344134 -0.0039052041
0.020409612 -0.15611051 -0.012818475 -0.03400759 0.13889344 -0.043024544 -0.013587154 0.06665074
0.036003996 -0.06511391 -0.043595668 -0.06822403 -0.03819036 -0.028754791 0.003330816 0.00879732
-0.03839655 -0.025401205 -0.022428295 0.0076358593 0.034307856 -0.0057601505 0.10861112 0.05476422
0.014693448 -0.0020460098 0.07961152 -0.060330316 0.03096 0.029396266 -0.020027628 -0.08428673
00000000: 9f8c 5e3d 5771 81bd 1153 dcbc c476 2abc
00000010: 6702 e7bd 7b77 ecbc 5047 a53c 85cd 203d
00000020: 1122 3e3d c257 d5bc e0af 4d3c 52b9 67bc
00000030: 7867 c13c 7ab8 c53b 0e57 e6bb dac2 433c
00000040: 68d6 23bc 653d d83b 6f80 6c3d 4910 3fbc
00000050: 7dab bb3c 3733 adbc 1814 55bc 6569 ed3c
00000060: f82b 2c3c d683 0a3d f429 f33b 481b 1a3d
00000070: c47a 76bd e93e 33bb 166d bb3c b26f dcbb
00000080: 9fa7 3e3c 85f3 d93c 0073 bd3c 3ab9 7d3d
00000090: 6489 4fbe ed7a 8e3c 9728 4f3d 841b 813d
000000a0: 2c88 0dbb 643a 233b 4896 57bc 0256 4d3d
000000b0: b624 f03b 0982 ad3c 94c2 eabc a3d2 5dbc
000000c0: 3cfd e5bd 3175 313d 61b5 ca3c 131c 0dbd
000000d0: ecd5 23bd cd12 3bbe 3f76 113d a6ab 09bd
000000e0: f45f c33c 4169 293b 6801 14bc f69d ebbb
000000f0: 0234 443c 6d18 fe3c a8e0 7fb8 4b56 e2bb
00000100: d4d7 f3bc 95c9 763d 5ad6 86bb c002 32bd
00000110: d289 a2bd c6f0 973c c327 283c 1f22 c13c
00000120: fd7e 61bd fb9b ea3a b68e 7f3d 9388 baba
00000130: 4351 31bd cfd6 433d 5a64 a73c 2204 95bc
00000140: 4b02 433d c414 2c3b 2728 863d 64d1 253c
00000150: cea3 813c b91f d93b 2649 eabc e7bb 5c3b
00000160: 1c0e 483d 562a a6bc c47c f9bc 641f 0c3d
00000170: 3d3e d0bc 26e8 2dbc 7046 96bc 74ee 7fbb
00000180: 0f32 a73c 6fdb 1fbe 9504 52bc 8b4b 0bbd
00000190: 153a 0e3e 813a 30bd a89c 5ebc 2f80 883d
000001a0: ed78 133d 715a 85bd 5f91 32bd 0ab9 8bbd
000001b0: 7f6d 1cbd 2b8f ebbc d249 5a3b a222 103c
000001c0: b345 1dbd 3016 d0bc 8bbb b7bc 3b36 fa3b
000001d0: 6586 0c3d a5bf bcbb 826f de3d 7250 603d
000001e0: cabc 703c 5916 06bb 5d0b a33d ec1c 77bd
000001f0: d39f fd3c 70d0 f03c fb10 a4bc 859e acbd

policy_network.1.running_mean f4 [128]
-0.4052477 -1.2759507 -0.82010037 0.02049022 -1.9512051 -0.4183432 0.42319503 -1.3005295
-0.57081217 0.5883413 1.6730897 -0.26140618 -0.20316215 0.7175854 0.9119189 0.30097753
-0.2375449 0.011860941 0.23945352 0.49128443 -0.50251526 0.4828253 1.446538 0.1118225
1.7300091 -0.90042746 -0.2955046 -1.4007959 -1.7399204 0.9034892 0.044665474 -1.1613531
-1.0020542 0.38283172 -0.045716453 1.6620433 1.4519877 2.1175408 -0.6147681 -1.0011214
0.38643593 0.21393825 -0.21988821 -0.7582675 1.1114213 -0.10739974 0.3651493 2.4953864
-2.4676235 1.2251301 -0.2166884 -0.20313224 0.2352877 -2.0038598 0.5296746 1.3272485
0.12808158 1.3167998 -0.43723312 1.5310827 -0.19871032 -0.44494227 0.82083935 0.25422087
-0.8319219 1.968729 0.29439887 -1.6592497 -1.3182601 0.010913256 -1.975645 -0.12752223
0.24801691 -0.59890294 0.07517692 -0.010354831 -0.74116594 -0.588192 0.35457984 0.49733874
-0.06419789 -0.066212 1.2144377 1.6344879 0.4008087 0.66982836 0.5021266 0.48395318
0.06405726 -1.4263022 1.0422 0.2993275 -0.88626075 -0.4689277 -0.013505319 -0.086740956
-0.46704194 1.823866 -0.077514574 0.8148074 2.7769125 0.60582983 1.1595428 -0.102216765
-1.2024091 -0.3638012 -2.2920525 -0.7921013 -1.3633982 -0.7598672 0.03278755 0.13743055
0.480249 -2.2408426 -0.23201607 1.6718374 -1.7139 -2.5352514 2.3492434 -0.9199137
-0.10885979 0.15788889 1.759649 -0.14590079 -0.41355145 -0.27134657 -0.32388595 1.5913062
00000000: a07c cfbe 5a52 a3bf 19f2 51bf 1bdb a73c
00000010: 17c1 f9bf 1431 d6be 05ad d83e c077 a6bf
00000020: bf20 12bf 899d 163f ce27 d63f 08d7 85be
00000030: bd09 50be adb3 373f 8473 693f ba19 9a3e
00000040: f83e 73be 6454 423c 4e33 753e a289 fb3e
00000050: d7a4 00bf e134 f73e 2828 b93f 3203 e53d
00000060: f070 dd3f 6a82 66bf 614c 97be 484d b3bf
00000070: b6b5 debf 114b 673f 25f3 363d 38a7 94bf
00000080: 5043 80bf 8502 c43e 2d41 3bbd d6bd d43f
00000090: bcda b93f ca85 0740 7161 1dbf bf24 80bf
000000a0: eeda c53e a112 5b3e 602a 61be d21d 42bf
000000b0: 0e43 8e3f 65f4 dbbd d9f4 ba3e 69b4 1f40
000000c0: 8bed 1dc0 10d1 9c3f 90e3 5dbe e601 50be
000000d0: 42ef 703e 3d3f 00c0 c198 073f 47e3 a93f
000000e0: d127 033e e58c a83f 05dd dfbe 85fa c33f
000000f0: b87a 4bbe 79cf e3be 8722 523f 3d29 823e
00000100: d5f8 54bf 50ff fb3f 73bb 963e 4b62 d4bf
00000110: bfbc a8bf 83cd 323c efe1 fcbf 3095 02be
00000120: 25f8 7d3e b451 19bf 5bf6 993d 4fa7 29bc
00000130: 0dbd 3dbf c093 16bf 7d8b b53e 2fa3 fe3e
00000140: 2f7a 83bd 289a 87bd b272 9b3f e636 d13f
00000150: cc36 cd3e df79 2b3f 5e8b 003f b6c8 f73e
00000160: 7430 833d 1291 b6bf cf66 853f 7441 993e
00000170: fce1 62bf 4b17 f0be 6a45 5dbc 3ea5 b1bd
00000180: 1f20 efbe 7174 e93f f6bf 9ebd 3897 503f
00000190: efb8 3140 aa17 1b3f e66b 943f 0657 d1bd
000001a0: 8be8 99bf 2744 babe fdb0 12c0 27c7 4abf
000001b0: d583 aebf a886 42bf 3d4c 063d 98ba 0c3e
000001c0: 32e3 f53e f769 0fc0 9f95 6dbe c5fe d53f
000001d0: 1361 dbbf 8f41 22c0 015a 1640 777f 6bbf
000001e0: e2f1 debd a0ad 213e 2e3c e13f 0467 15be
000001f0: 04bd d3be f0ed 8abe 61d4 a5be ecaf cb3f

policy_network.1.running_var f4 [128]
0.000112496025 0.015243035 0.0026925704 0.0006346778 0.017162543 0.002351947 0.0002819192 0.011489103
0.0033381414 0.0001474527 0.0059404615 0.0012173468 0.0001410722 0.0033190534 0.00044614397 4.951028e-05
0.00010180069 0.0012599927 0.003052516 0.00024328496 0.002479591 0.00040073125 0.0012414982 0.006264124
0.017777598 0.0016760018 0.0043845777 0.015816161 0.0153665 0.0023287223 0.0034244924 0.008025985
0.0054203235 0.0004950543 0.0009638467 0.03167141 0.022714054 0.032039575 0.006778162 0.0022224518
0.00020077883 0.00022713782 0.0025424927 0.0009143607 0.0036697807 0.004123249 0.0010402747 0.026131235
0.021621149 0.016266115 0.0026679214 0.0003211048 0.00010432432 0.030204074 0.0020265705 0.017209707
0.0033912365 0.0046903705 0.004849445 0.0044558225 0.0012117252 0.0008199938 0.0011453177 0.0039107976
0.017716518 0.027358666 0.0012005888 0.007502271 0.008647229 0.00011992416 0.028294517 0.00065464235
0.00062797876 0.001180345 0.00045448 0.0031288834 0.00010400335 0.0018926186 0.0045458497 0.0001627169
0.00019576089 0.0014269936 0.0029155132 0.0071042217 0.0012655437 0.003097297 0.0007777502 0.0053066714
0.002583811 0.0034040215 0.00013548067 0.0014445694 0.015290567 0.0019348025 0.0031426826 0.00014852145
0.0026539054 0.01783798 0.0040834416 0.0017273063 0.027312912 0.0028010667 0.0075738453 0.0004198614
0.0041723517 0.0034656539 0.014674304 0.0015234017 0.0044839 0.0008397146 0.0015634791 0.000298122
0.001978396 0.007239455 0.00020194138 0.0016967956 0.020462044 0.03249964 0.019008063 0.0074169566
0.006792723 8.071072e-05 0.015395043 9.043603e-05 0.0014553709 9.8982964e-05 7.7460616e-05 0.02110173
00000000: d8eb eb38 ecbd 793c d675 303b 8260 263a
00000010: 7698 8c3c 1f23 1a3b 8ece 9339 ca3c 3c3c
00000020: b8c4 5a3b 889d 1a39 34a8 c23b 618f 9f3a
00000030: c8ec 1339 7a84 593b 6ee8 e939 42a9 4f38
00000040: d47d d538 5726 a53a b80c 483b 4f1a 7f39
00000050: a280 223b 3d19 d239 c4b9 a23a 4843 cd3b
00000060: 53a2 913c 4aad db3a 81ac 8f3b e590 813c
00000070: c6c3 7b3c 7a9d 183b 736d 603b 6c7f 033c
00000080: f89c b13b 88c6 013a a8aa 7c3a e1b9 013d
00000090: d312 ba3c ee3b 033d 581b de3b 8ea6 113b
000000a0: 2888 5239 d82b 6e39 f39f 263b b5b1 6f3a
000000b0: b480 703b 521c 873b d459 883a 2c11 d63c
000000c0: d61e b13c 8440 853c 4bd8 2e3b f559 a839
000000d0: b1c8 da38 896e f73c 36d0 043b 5ffb 8c3c
000000e0: 823f 5e3b aeb1 993b 18e8 9e3b 2602 923b
000000f0: c0d2 9e3a daf4 563a 7c1e 963a 2626 803b
00000100: 3b22 913c 481f e03c 135d 9d3a 9cd5 f53b
00000110: 1bad 0d3c cb7f fb38 e7c9 e73c 4e9c 2b3a
00000120: f19e 243a ceb5 9a3a 4647 ee39 f40d 4d3b
00000130: 601c da38 be11 f83a 5af5 943b fc9e 2a39
00000140: 2a45 4d39 f609 bb3a 3212 3f3b 88ca e83b
00000150: 9ae0 a53a 05fc 4a3b efe1 4b3a 96e3 ad3b
00000160: 2855 293b 0116 5f3b d10f 0e39 b557 bd3a
00000170: 4985 7a3c 3399 fd3a 77f5 4d3b 6cbc 1b39
00000180: 25ed 2d3b f520 923c 64ce 853b c866 e23a
00000190: 54bf df3c 1a92 373b 052e f83b d820 dc39
000001a0: 39b8 883b 0620 633b 7e6c 703c e1ac c73a
000001b0: aeed 923b 4b20 5c3a a7ed cc3a 424d 9c39
000001c0: faa7 013b f338 ed3b 3ac0 5339 0367 de3a
000001d0: 04a0 a73c 581e 053d ccb6 9b3c f109 f33b
000001e0: 7e95 de3b 3d43 a938 7e3b 7c3c 79a8 bd38
000001f0: 25c2 be3a 1395 cf38 5a72 a238 89dd ac3c

policy_network.2.weight f4 [256, 128]
-0.39220473 0.23338191 0.6274332 -0.8219658 0.26667833 0.492703 1.413991 0.06211884
-0.22436593 -0.35291797 -0.4337096 -0.26843137 -0.97572523 -1.3354717 -0.44893518 1.0049084
1.139203 -1.2466413 -0.79769456 -0.80534786 1.3427923 -0.5748831 -0.11126555 0.62125564
0.20556994 0.6355791 0.768324 0.6906532 -0.038746864 -0.839818 -0.7625 -0.06252008
0.25745142 0.052768134 -0.05802811 -0.6513896 -0.33068606 -0.6623938 1.024685 0.85195434
0.0508891 0.63711673 -0.9499768 1.0491464 -1.0299621 -0.80914253 1.0771949 -0.57081443
0.42037746 0.05106433 0.7962079 0.209275 -0.021281034 0.42668214 -0.19561714 -0.24038632
0.96317714 -1.5785213 0.31719363 -0.93383944 -0.15641688 -0.18921107 -1.3771675 0.6891283
0.13100898 -0.6762668 -0.11399504 0.5780852 -0.14213371 0.06063303 0.5015387 0.20342125
0.034836236 0.23519139 0.6095333 0.82368237 -0.59554094 1.0940373 -0.46416807 -0.14796306
-1.0802897 0.8734678 -0.048223402 0.024003703 -0.080596365 -0.027984593 -1.5000046 -0.60287166
-0.8458998 -1.6903652 -0.572071 0.48600468 -0.8265079 1.4733868 -0.26517954 0.69294614
0.87904376 -0.9072572 1.6998663 1.0420246 -0.66669255 -2.1570468 -0.42451206 -1.2929908
2.3567007 -1.598168 0.76691127 0.29000565 0.9718407 0.022934536 -0.27187595 -0.08102102
-0.63359976 0.12472259 1.2758826 -0.51232314 0.26886287 0.8208327 -0.212051 0.58966047
0.37167126 -0.97401273 -0.7783372 -0.6245101 0.92339325 -0.48656997 -0.15422624 -0.47928798
0.76817584 -0.08499147 0.09848602 0.34782296 -0.081735924 0.1286898 -0.30505565 -0.27603453
0.28361183 -0.37017778 0.12325136 1.4956148 -0.34489477 -0.02958471 0.57944065 -0.4991026
0.63671803 0.13408291 0.39147684 0.72846216 0.14289887 1.0113783 -0.3449771 0.2410529
0.84217614 -0.28470346 -0.21711594 -0.13311268 -0.23031843 1.4905518 -0.071561605 0.41729254
-1.1927676 0.8269458 -0.9239224 0.028817551 0.10574213 0.05771626 -0.01844154 0.19404116
-0.8684916 -1.3618318 0.30778128 -0.58739793 -0.40576148 -0.39596754 0.2939625 0.027064653
0.082088955 0.2559722 0.49844956 0.39201337 0.022540096 -0.14409304 -0.47943392 0.5013146
-0.33542684 0.04509474 -0.47331452 0.2240223 -0.63003874 0.20167659 0.12091345 -0.37382457
-0.07142317 0.11549026 1.5457057 -1.9585996 -0.9475862 -0.871715 -0.10644677 1.4278108
-1.9316794 0.88069713 0.6077808 0.38402888 0.22533749 0.06366456 0.25062418 -0.6191837
-0.3436759 0.36001232 -1.083773 0.45304686 -0.1602087 -0.88573694 -1.7755473 -1.0263268
-0.33619648 1.5554115 -0.27289528 1.2595608 -0.75067705 -0.027251884 0.021367349 0.60105383
-2.6223361 -0.11986799 0.4930495 0.29203913 0.004860776 0.80201405 -1.0722879 -0.40644562
-0.79540896 0.7010808 0.009357738 0.17673117 -0.18548302 0.63394064 1.6624805 0.82613534
0.062470187 0.053597648 -1.1849811 0.057977423 -0.13392287 -0.0030364934 0.15455803 0.33392522
0.39554203 -0.9443693 0.14234824 -1.0732944 0.47250035 0.880654 -0.649574 0.022493081
00000000: 0fcf c8be abfb 6e3e 769f 203f 5a6c 52bf
00000010: 108a 883e 9143 fc3e a8fd b43f 5370 7e3d
00000020: 2fc0 65be aab1 b4be 2f0f debe d66f 89be
00000030: 21c9 79bf bdf0 aabf d5da e5be d7a0 803f
00000040: 67d1 913f f191 9fbf b635 4cbf 472b 4ebf
00000050: 9ee0 ab3f 8a2b 13bf 31df e3bd 9c0a 1f3f
00000060: ed80 523e 50b5 223f e2b0 443f a6ce 303f
00000070: 08b5 1ebd 50fe 56bf 3333 43bf 870a 80bd
00000080: acd0 833e 6623 583d e2ae 6dbd 78c1 26bf
00000090: af4f a9be a492 29bf e128 833f ae19 5a3f
000000a0: 1771 503d 151a 233f ae31 73bf 6e4a 863f
000000b0: ccd5 83bf f723 4fbf 86e1 893f e520 12bf
000000c0: b73b d73e d528 513d 48d4 4b3f 304c 563e
000000d0: 9055 aebc 1576 da3e dc4f 48be d527 76be
000000e0: c792 763f fc0c cabf 3467 a23e 1a10 6fbf
000000f0: bf2b 20be 8cc0 41be 0647 b0bf b66a 303f
00000100: 3827 063e d21f 2dbf 3b76 e9bd 64fd 133f
00000110: 808b 11be 575a 783d d764 003f a94d 503e
00000120: 71b0 0e3d 03d6 703e 600a 1c3f d9dc 523f
00000130: 5f75 18bf 6a09 8c3f 70a7 edbe a183 17be
00000140: ef46 8abf 969b 5f3f e785 45bd 6aa3 c43c
00000150: b50f a5bd f23f e5bc 2700 c0bf cc55 1abf
00000160: e48c 58bf e35d d8bf 3f73 12bf 9bd5 f83e
00000170: 0696 53bf f097 bc3f 9dc5 87be eb64 313f
00000180: 0309 613f 0242 68bf 3895 d93f 1061 853f
00000190: 5dac 2abf 0e0d 0ac0 a559 d9be b980 a5bf
000001a0: 2fd4 1640 c590 ccbf 4c54 443f 9f7b 943e
000001b0: 8dca 783f 35e1 bb3c 5333 8bbe 59ee a5bd
000001c0: 9833 22bf 8f6e ff3d 1f50 a33f 9c27 03bf
000001d0: 65a8 893e 1822 523f e623 59be fdf3 163f
000001e0: b24b be3e e658 79bf 1b41 47bf e5df 1fbf
000001f0: 8063 6c3f b31f f9be 7ced 1dbe 3c65 f5be
00000200: 2ca7 443f 0210 aebd 0ab3 c93d da15 b23e
00000210: 2a65 a7bd 42c7 033e 4130 9cbe 6654 8dbe
00000220: 9235 913e f187 bdbe 366b fc3d 4e70 bf3f
00000230: 0c96 b0be a25b f2bc 3956 143f 608a ffbe
00000240: f4ff 223f 084d 093e a76f c83e 7f7c 3a3f
00000250: 1554 123e d874 813f d7a0 b0be 92d6 763e
00000260: db98 573f a7c4 91be a453 5ebe b14e 08be
00000270: 98d8 6bbe 67ca be3f e48e 92bd 5ea7 d53e
00000280: 9cac 98bf b8b2 533f 2e86 6cbf c912 ec3c
00000290: 548f d83d e367 6c3d b612 97bc bab2 463e
000002a0: 7755 5ebf 8150 aebf 8295 9d3e b65f 16bf
000002b0: f8bf cfbe 42bc cabe 4182 963e b1b6 dd3c
000002c0: 411e a83d ca0e 833e c834 ff3e fab5 c83e
000002d0: 02a6 b83c 208d 13be 5d78 f5be 2756 003f
000002e0: 11bd abbe 43b5 383d 4856 f2be 1a66 653e
000002f0: 384a 21bf 4f84 4e3e 79a1 f73d ef65 bfbe
00000300: 5046 92bd 2886 ec3d afd9 c53f 64b3 fabf
00000310: 0295 72bf b728 5fbf c400 dabd 81c2 b63f
00000320: 4541 f7bf 5e75 613f 8697 1b3f 6f9f c43e
00000330: dfbe 663e 9162 823d d051 803e d382 1ebf
00000340: 4af6 afbe 8953 b83e 13b9 8abf c2f5 e73e
00000350: c00d 24be a8bf 62bf 2245 e3bf ad5e 83bf
00000360: f221 acbe b917 c73f eeb8 8bbe 4a39 a13f
00000370: 5f2c 40bf 583f dfbc 940a af3c aade 193f
00000380: 5bd4 27c0 597d f5bd fc70 fc3e 2786 953e
00000390: 2547 9f3b cb50 4d3f bb40 89bf a419 d0be
000003a0: ec9f 4bbf 087a 333f 3351 193c 04f9 343e
000003b0: 43ef 3dbe ef49 223f 29cc d43f 9b7d 533f
000003c0: bde0 7f3d 3589 5b3d 76ad 97bf bc79 6d3d
000003d0: 1423 09be e8ff 46bb 7644 1e3e 3ff8 aa3e
000003e0: 7c84 ca3e 30c2 71bf bdc3 113e b661 89bf
000003f0: 91eb f13e 8a72 613f 7b4a 26bf 6943 b83c

policy_network.2.bias f4 [256]
0.0005499008 -0.019986479 -0.06554369 -0.05390263 -0.08567664 -0.00246459 0.04110647 -0.03283278
0.05230054 -0.004194784 0.0049827825 -0.07320102 -0.05452626 0.087318994 -0.0046044313 0.057559095
-0.026964877 -0.008401565 -0.05267862 0.006694553 -0.048267297 -0.00090245565 -0.03912426 -0.036869377
0.06875248 -0.061284494 0.04386854 0.025518252 -0.064427234 -0.048531104 -0.011231762 0.08183102
0.0009816502 0.040935744 0.052197255 0.05076533 -0.021055609 0.047984395 -0.061143167 0.022202253
-0.016202332 -0.05531747 0.018619195 -0.018439434 0.019164385 0.03821925 0.07019279 0.053314768
-0.0401322 0.0323156 0.01775589 0.046771005 -0.02475877 0.041244835 0.06777644 0.015417551
-0.050713852 -0.04183122 -0.032235295 -0.074237175 -0.054707725 -0.0542021 -0.012082321 -0.08291535
-0.046980582 -0.037650462 0.060748346 -0.031792197 -0.075398214 0.030612262 0.059300855 0.019525986
-0.005900718 -0.05338878 0.04262717 0.06514276 -0.013401021 -0.07435857 0.06361481 0.0063523278
0.0300024 0.049904205 0.048483863 0.07728362 0.036196068 0.059224363 0.036910683 -0.066932954
0.008998599 -0.022485912 0.0026414732 -0.0039519668 -0.034417566 -0.061612125 0.03957768 -0.03416088
-0.04249084 0.009271632 0.049159136 0.08251791 -0.05594552 0.04956042 0.052467205 -0.019722553
0.04531316 0.0680103 0.04236094 -0.061862417 -0.02103284 0.077304505 0.05835577 -0.02061925
-0.00028160063 0.046674084 0.04473595 -0.04904374 -0.035542503 -0.027492808 -0.044963125 0.019943554
0.016701331 -0.034385785 0.016030276 -0.057573177 0.06600461 0.012087185 0.051794313 -0.08750352
-0.02096653 -0.08684213 -0.043558076 -0.065710224 0.034904294 -0.028141322 0.025043927 0.070493706
0.059177347 0.033235468 -0.08292452 0.010082161 0.04433855 -0.055441126 -0.052451596 -0.088739514
0.08847139 0.081507854 0.007876782 -0.008478439 -0.08170568 0.004824038 0.014787187 -0.06746424
-0.085750274 -0.054236818 0.06910079 0.060579184 0.043919764 -0.08312693 0.028139574 -0.06623309
-0.046405684 -0.05335962 0.05846487 -0.028565696 0.08293933 0.05044835 0.05736556 0.072695926
-0.021039737 0.03236761 0.087411895 -0.010506949 0.055326328 -0.07480706 0.07630124 -0.06936804
0.029541595 0.029204935 0.052124213 -0.077963844 0.049330063 0.027372228 -0.044150114 0.030317592
0.0146175865 0.058159947 0.0013066622 -0.04912646 -0.010732514 -0.019438375 -0.02929716 -0.054947425
0.070754364 0.015557603 -0.022112474 -0.031941667 -0.0013207587 -0.059245072 0.024320655 -0.023692368
-0.04789954 -0.07586147 0.059318695 -0.004900378 0.061190642 0.08854641 -0.085738644 0.06554637
-0.012739818 0.005385477 0.063619986 0.062333938 -0.030931002 -0.03208818 0.010615265 -0.005282697
0.018066172 0.060984768 -0.069303356 -0.045878462 -0.068127595 0.03114345 0.005584656 -0.08130772
-0.078882515 -0.063040726 -0.053864263 0.061140787 0.001642746 -0.009707023 -0.083857305 0.031772282
0.039408978 0.05909206 -0.064941786 -0.038271204 0.019146658 0.073977314 0.053549018 -0.03540421
-0.07230986 -0.051198475 0.050648093 0.037443653 0.01930122 -0.01534507 0.04967357 0.009077147
-0.04367278 -0.0046253507 0.008941794 -0.058092326 0.071769394 0.034762803 -0.05720758 -0.030328568
00000000: 3827 103a afba a3bc c53b 86bd 01c9 5cbd
00000010: 3c77 afbd f584 21bb 425f 283d aa7b 06bd
00000020: 1739 563d 6674 89bb 9c46 a33b 6bea 95bd
00000030: ed56 5fbd 4dd4 b23d c5e0 96bb 16c3 6b3d
00000040: 72e5 dcbc b8a6 09bc 89c5 57bd fb5d db3b
00000050: eeb3 45bd c692 6cba c340 20bd 5804 17bd
00000060: 1ace 8c3d 7305 7bbd 80af 333d a70b d13c
00000070: 6df2 83bd 8dc8 46bd 6d05 38bc 0697 a73d
00000080: b7aa 803a 3dac 273d cacc 553d 4fef 4f3d
00000090: d07c acbc 498b 443d 4271 7abd 80e1 b53c
000000a0: c1ba 84bc 9294 62bd 4887 983c 4c0e 97bc
000000b0: a1fe 9c3c ca8b 1c3d 3dc1 8f3d 9660 5a3d
000000c0: a961 24bd 5d5d 043d cd74 913c f492 3f3d
000000d0: e7d2 cabc 58f0 283d 60ce 8a3d e599 7c3c
000000e0: 54b9 4fbd 3757 2bbd 2809 04bd a909 98bd
000000f0: 3515 60bd 0503 5ebd edf4 45bc 86cf a9bd
00000100: b66e 40bd 5f37 1abd 42d3 783d 8938 02bd
00000110: 616a 9abd 91c6 fa3c 74e5 723d f6f4 9f3c
00000120: cf5a c1bb 32ae 5abd d499 2e3d 9169 853d
00000130: f58f 5bbc 4e49 98bd 7b48 823d 3027 d03b
00000140: 98c7 f53c 5a68 4c3d 0497 463d e046 9e3d
00000150: 5442 143d 3f95 723d a82f 173d 2514 89bd
00000160: dc6e 133c 6034 b8bc 911c 2d3b 807f 81bb
00000170: 6ff9 0cbd ff5c 7cbd 351c 223d 47ec 0bbd
00000180: e00a 2ebd 0be8 173c 175b 493d 26ff a83d
00000190: 2127 65bd deff 4a3d dae7 563d 3191 a1bc
000001a0: 4b9a 393d fc48 8b3d aa82 2d3d 7263 7dbd
000001b0: 104d acbc d351 9e3d 7606 6f3d b4e9 a8bc
000001c0: cca3 93b9 532d 3f3d 0b3d 373d 17e2 48bd
000001d0: 0495 11bd 9938 e1bc 412b 38bd aa60 a33c
000001e0: 3bd1 883c 1cd8 0cbd ed51 833c dad1 6bbd
000001f0: 6d2d 873d 5409 463c 4626 543d 0c35 b3bd
00000200: 00c2 abbc 49da b1bd f469 32bd 1593 86bd
00000210: cef7 0e3d a188 e6bc ec28 cd3c 015f 903d
00000220: f263 723d ea21 083d 55d4 a9bd a62f 253c
00000230: 579c 353d 3c16 63bd 7cd7 56bd 10bd b5bd
00000240: 7d30 b53d 97ed a63d 9e0d 013c 27e9 0abc
00000250: 4f55 a7bd f712 9e3b f545 723c b12a 8abd
00000260: d79d afbd 6d27 5ebd b784 8d3d e121 783d
00000270: 36e5 333d 743e aabd f784 e63c 37a5 87bd
00000280: e313 3ebd 9e8f 5abd dc78 6f3d 9b02 eabc
00000290: 18dc a93d eea2 4e3d 26f8 6a3d 9ae1 943d
000002a0: 875b acbc e693 043d 0205 b33d 5725 2cbc
000002b0: dc9d 623d 7234 99bd d343 9c3d d510 8ebd
000002c0: 3701 f23c 303f ef3c 3380 553d 82ab 9fbd
000002d0: 520e 4a3d b93b e03c c0d6 34bd 995c f83c
000002e0: 9a7e 6f3c 2039 6e3d 4f44 ab3a d438 49bd
000002f0: 6dd7 2fbc 3a3d 9fbc 9900 f0bc 8d10 61bd
00000300: aae7 903d 51e5 7e3c 3825 b5bc 44d5 02bd
00000310: 4f1d adba f6aa 72bd 1c3c c73c 7f16 c2bc
00000320: 4f32 44bd 425d 9bbd 29f8 723d 5a93 a0bb
00000330: 0aa3 7a3d d257 b53d be97 afbd 2d3d 863d
00000340: abba 50bc a878 b03b 324b 823d df51 7f3d
00000350: 0363 fdbc e56e 03bd a6eb 2d3c 791a adbb
00000360: 82ff 933c 2acb 793d ebee 8dbd 0eeb 3bbd
00000370: 7b86 8bbd 8c20 ff3c 7dff b63b a984 a6bd
00000380: 288d a1bd 7f1b 81bd c6a0 5cbd c36e 7a3d
00000390: 6951 d73a 350a 1fbc 61bd abbd a723 023d
000003a0: 4f6b 213d 840a 723d 3300 85bd 44c2 1cbd
000003b0: 74d9 9c3c 6b81 973d 3756 5b3d 0104 11bd
000003c0: 3117 94bd 7eb5 51bd 6074 4f3d 845e 193d
000003d0: 981d 9e3c e369 7bbc 8376 4b3d 50b8 143c
000003e0: 3be2 32bd 4190 97bb 9a80 123c 38f2 6dbd
000003f0: d5fb 923d 7163 0e3d 7f52 6abd 9e73 f8bc

policy_network.3.weight f4 [256]
0.11432481 0.04379857 0.02925007 0.07539586 0.049199793 -0.10388405 0.07436195 0.08913157
0.09392601 -0.06330924 0.050885037 0.016478514 0.023709629 0.012020661 -0.10325474 0.024953565
0.0014343357 -0.073711984 0.09323979 1.0602698 0.095864035 0.04645429 0.020859893 0.01735145
-0.0090107275 0.035090826 0.8305173 -0.05138899 -0.024783654 -0.058161728 -0.053361222 0.06474351
0.028879087 -0.029652609 -0.0036286735 0.04992916 -0.02529126 -0.09409713 0.008270253 0.04248286
0.036493436 0.06811649 -0.100180686 -0.04816696 0.11781519 -0.09847654 -7.388007e-05 -0.10072983
0.005124045 -0.031224078 0.15807077 0.11609686 0.056139927 0.025599597 0.09116732 -0.019371439
-0.007742296 -0.03345429 -0.004399275 -0.03233397 0.1212731 -0.062168553 0.056149624 0.0068046097
-0.035066426 -0.0050618784 -0.02043054 -0.09389433 0.04105548 -0.02050627 -0.04526487 -0.077309944
0.045774445 0.049904734 -0.01027473 -0.009216718 -0.017401826 0.018447414 0.05063298 0.007864221
0.04916441 -0.03704796 -0.062329967 0.010306169 0.07846361 -0.006770478 -0.0029369174 0.014636645
0.031931378 -0.09165363 -0.0762556 -0.004564153 0.022760859 -0.0052665994 -0.078001566 -0.051222213
0.11030385 -0.07809933 0.1158193 0.08859343 0.0032757965 0.053258434 0.27075386 -0.016586969
-0.048332606 0.011416532 0.10901457 -0.013151812 -0.030952003 0.05568075 -0.024286162 -0.030023683
0.10733229 0.037093937 -0.064811766 0.027446013 0.008830457 0.008062067 -0.08981446 -0.010469399
0.020291872 0.010950687 -0.022942876 0.12295487 0.005268699 -0.013671065 0.026908569 -0.085277766
-0.002285074 -0.034214962 -0.018965859 -0.08912474 0.0029164958 -0.031634267 0.052902147 0.021389725
-0.059238717 -0.14222814 -0.098530136 0.039988995 0.050317083 0.039657336 0.018745758 -0.040010393
0.045127906 0.01441865 0.042820748 0.110908285 0.073997 -0.0192175 0.08658893 -0.036691677
0.06601975 -0.077029064 0.03419453 -0.02289036 -0.086267285 0.072762534 -0.047848474 -0.096153
0.07534427 0.03715183 -0.032377057 -0.02833212 0.010402388 0.06603293 0.1330337 -0.055430174
0.06545048 0.08985224 0.036197033 0.0062102983 0.10232784 0.056735206 -0.03937554 0.12283633
-0.052309234 -0.008888114 0.03031655 -0.025995618 -0.014725273 -0.12166815 0.03347213 -0.17413493
-0.047615133 -0.09104912 -0.17883629 -0.06440251 -0.0069144024 0.02920362 0.12969142 0.015825508
0.07233274 -0.07906569 -0.066313475 0.061118655 -0.09550438 -0.0365034 -0.0048387377 0.07720749
0.019500334 -0.10909796 0.037224088 0.01748458 0.015603012 -0.0091550015 -0.09784507 0.060850233
0.083029464 0.7190671 -0.002816445 -0.09970127 0.11735835 -0.056960687 -0.008747537 0.0019940468
0.03069181 0.0391754 0.081506774 -0.141551 -0.08225396 -0.11547911 0.112643346 -0.013631166
0.0015082005 0.0025446746 -0.067788966 -0.012507563 0.008972799 0.0491066 -0.016748006 -0.106712915
-0.002666075 -0.009330668 0.086920515 0.02458035 0.05469868 0.041671976 0.015352415 0.044210315
-0.059716705 0.050333258 -0.036304884 -0.012822986 -0.08733067 -0.05251136 -0.058285046 -0.039417524
0.049176615 -0.00012067665 -0.057062715 0.03947861 -0.028433952 0.10785628 1.4402906 0.01607637
00000000: 2023 ea3d 2166 333d d89d ef3c 2569 9a3d
00000010: b985 493d 29c1 d4bd 144b 983d 9d8a b63d
00000020: 485c c03d 46a8 81bd d46c 503d f3fd 863c
00000030: b23a c23c 4ef2 443c 3977 d3bd 6b6b cc3c
00000040: 5200 bc3a 4ff6 96bd 81f4 be3d ecb6 873f
00000050: 5d54 c43d db46 3e3d 5ee2 aa3c a124 8e3c
00000060: bba1 13bc 66bb 0f3d c89c 543f 437d 52bd
00000070: 1707 cbbc fe3a 6ebd 4c91 5abd 3f98 843d
00000080: d693 ec3c 07ea f2bc 0acf 6dbb 8582 4c3d
00000090: 9e2f cfbc ffb5 c0bd f57f 073c 8202 2e3d
000000a0: 247a 153d a980 8b3d 882b cdbd b84a 45bd
000000b0: 1749 f13d 11ae c9bd 10f0 9ab8 714b cebd
000000c0: 9be7 a73b a3c9 ffbc 4edd 213e 31c4 ed3d
000000d0: fbf2 653d 3fb6 d13c efb5 ba3d dab0 9ebc
000000e0: 16b3 fdbb 5e07 09bd cb27 90bb a070 04bd
000000f0: 085e f83d 74a4 7ebd 26fd 653d 34f9 de3b
00000100: d0a1 0fbd 1dde a5bb f35d a7bc ac4b c0bd
00000110: ca29 283d c4fc a7bc a867 39bd ad54 9ebd
00000120: fc7d 3b3d e868 4c3d 5757 28bc b801 17bc
00000130: 468e 8ebc 081f 973c 8764 4f3d efd8 003c
00000140: 9f60 493d 9abf 17bd b54d 7fbd 35db 283c
00000150: 87b1 a03d e3da ddbb 4c79 40bb 8ace 6f3c
00000160: 7aca 023d e6b4 bbbd e52b 9cbd e48e 95bb
00000170: fb74 ba3c 7093 acbb 49bf 9fbd 62ce 51bd
00000180: fce6 e13d 8bf2 9fbd ab32 ed3d 7970 b53d
00000190: bfae 563b 8425 5a3d 40a0 8a3e 65e1 87bc
000001a0: 69f8 45bd 680c 3b3c 0843 df3d b37a 57bc
000001b0: 0e8f fdbc 8011 643d c6f3 c6bc 3af4 f5bc
000001c0: 08d1 db3d d0ef 173d 08bc 84bd 76d6 e03c
000001d0: 9fad 103c c316 043c a5f0 b7bd d887 2bbc
000001e0: 243b a63c 836a 333c b3f2 bbbc c3cf fb3d
000001f0: 0da5 ac3b 9afc 5fbc 5c6f dc3c 1ca6 aebd
00000200: 2ec1 15bb fd24 0cbd 4a5e 9bbc 0887 b6bd
00000210: ae22 3f3b ef92 01bd ecaf 583d 8139 af3c
00000220: 4ca4 72bd 41a4 11be 2bca c9bd 80cb 233d
00000230: 4919 4e3d bb6f 223d b490 993c f0e1 23bd
00000240: 0ad8 383d 343c 6c3c cf64 2f3d e223 e33d
00000250: bd8b 973d 056e 9dbc 8955 b13d 034a 16bd
00000260: 5d35 873d 6ac1 9dbd 900f 0c3d 9084 bbbc
00000270: e7ac b0bd 8604 953d c3fc 43bd ddeb c4bd
00000280: 194e 9a3d 842c 183d ce9d 04bd c318 e8bc
00000290: c76e 2a3c 463c 873d fc39 083e c00a 63bd
000002a0: e70a 863d 7404 b83d 5743 143d c27f cb3b
000002b0: 4291 d13d 2d63 683d 3f48 21bd 9d91 fb3d
000002c0: 3542 56bd 749f 11bc 6a5a f83c c3f4 d4bc
000002d0: 4542 71bc 272d f9bd 121a 093d 6d50 32be
000002e0: 1608 43bd f677 babd dc20 37be 77e5 83bd
000002f0: 3692 e2bb 6e3c ef3c d4cd 043e 7fa4 813c
00000300: 3023 943d 31ed a1bd 5ccf 87bd 8e57 7a3d
00000310: cd97 c3bd 9784 15bd 468e 9ebb f61e 9e3d
00000320: 2abf 9f3c c06e dfbd 4978 183d d23b 8f3c
00000330: c7a3 7f3c dcfe 15bc ff62 c8bd 183e 793d
00000340: 5a0b aa3d c814 383f 1b94 38bb 2e30 ccbd
00000350: 9359 f03d 9c4f 69bd d451 0fbc 8eae 023b
00000360: 646d fb3c 6276 203d 06ed a63d bff2 10be
00000370: c474 a8bd 5080 ecbd 8eb1 e63d 4155 5fbc
00000380: d0ae c53a 8ec4 263b f1d4 8abd 86ec 4cbc
00000390: a602 133c 0124 493d 1d33 89bc 4d8c dabd
000003a0: 51b9 2ebb a8df 18bc 6203 b23d bb5c c93c
000003b0: b90b 603d 3cb0 2a3d b288 7b3c e015 353d
000003c0: 8199 74bd 3f2a 4e3d 6eb4 14bd 8017 52bc
000003d0: 6cda b2bd 2716 57bd 4dbc 6ebd 4574 21bd
000003e0: 6b6d 493d c813 fdb8 98ba 69bd 53b4 213d
000003f0: 52ee e8bc c1e3 dc3d 715b b83f 97b2 833c

policy_network.3.bias f4 [256]
0.119695194 -0.0028063154 -0.008277652 0.011842892 0.05755533 0.09329216 0.051666137 0.14846282
0.09266162 0.022000207 -0.069715835 -0.035225604 -0.039445546 0.005025041 -0.098349884 0.019706765
-0.026346296 -0.06804022 -0.08618611 -0.15772222 -0.0654791 0.022313764 0.10267923 -0.0931431
0.031991422 0.008627086 0.07547402 0.009743324 -0.029089933 0.0620088 -0.071310274 0.08454335
0.14504369 -0.04239828 -0.049797256 0.07600023 -0.028549029 -0.08704559 -0.011258083 -0.037653796
0.12873735 0.028913712 -0.077287585 -0.06505032 -0.118604034 0.13791351 0.03228681 0.10032837
-0.052229516 -0.05249744 -0.088839956 -0.119420536 -0.031486366 0.08510195 -0.057679713 0.07966554
0.029264377 -0.005313189 -0.01598964 -0.06165187 0.028750448 -0.051356297 0.063161105 -0.07747096
0.042566136 0.035030704 0.077812165 0.1338258 -0.052235715 0.044258494 -0.06662218 -0.13713379
0.032415517 -0.057311986 0.087969184 0.049190283 0.00083072693 -0.15479419 -0.047665343 -0.01413668
-0.003247297 -0.058934577 -0.07857287 0.016768582 -0.055460513 0.017830273 -0.019033989 0.13319226
0.045440216 0.09756771 -0.0115801245 0.012145326 0.058812488 0.016393064 -0.002633234 0.060911182
-0.08075217 -0.04764055 0.07599845 -0.0059279073 -0.019676726 0.07216128 -0.009841447 -0.018853797
-0.08140413 0.02386724 0.10785011 -0.19244011 0.035111994 0.055615116 0.012126467 -0.0033596095
-0.09373648 0.1008644 0.056065418 -0.02031935 -0.002714497 0.009707279 0.057410028 -0.1489774
0.012576864 -0.44983065 -0.009608382 0.12486018 0.027426613 -0.015093052 -0.089649215 0.034151964
0.11366433 -0.13422418 0.008314127 -0.08806676 -0.12662385 -0.015702024 -0.079133764 -0.040631067
0.093264244 0.041653845 0.12127296 -0.11581204 -0.034130726 -0.0138890995 0.014721645 0.09413614
-0.0505526 -0.06702484 -0.12962647 -0.006412917 -0.12439849 -0.11373383 0.11323869 -0.07387602
0.07168276 -0.09576486 -0.0006874262 0.025058242 0.039453343 -0.01554811 -0.0042434526 0.14220718
-0.7171313 -0.0472474 -0.061700203 0.004187772 -0.00031534358 -0.11257609 0.02915378 -0.07361023
-0.13425995 0.060676448 -0.105339855 0.05453211 -0.1274392 0.05539325 0.06504079 0.038438063
-0.038608745 -0.11757452 0.0036138177 -0.10809422 0.038122516 0.07604847 0.074347876 0.12577371
-0.003157563 -0.057404254 0.26178622 -0.0102423765 0.15382509 -0.026895149 -0.105323076 0.032151844
-0.05769894 0.09509911 0.10447954 0.0050638933 0.075174905 0.098968334 0.028885514 -0.08040546
-0.5086463 0.04560812 0.052451577 0.0721403 -0.0038085303 0.008710373 0.007896238 0.06463389
0.12853278 -0.1275321 0.014211847 -0.12994456 -0.12330796 0.07750904 0.086438276 -0.03487998
0.03866579 -0.01905363 8.6744374e-05 -0.007298573 -0.028827116 0.059425283 -0.08684259 -0.028646661
-0.0020244787 0.0076456424 -0.06750527 -0.05367685 0.04441725 -0.123943314 0.009831185 -0.08638098
0.02703805 -0.11805065 0.103046186 0.05070333 0.007890792 0.055379372 0.048095115 0.046367247
-0.048347957 -0.13149695 0.05827363 -0.058516506 -0.058923744 0.14624597 0.045956675 0.06508522
0.055486023 0.044355217 0.01945629 -0.10265605 0.08380803 -0.06647331 0.37295216 -0.037276518
00000000: c122 f53d 29ea 37bb fd9e 07bc b008 423c
00000010: 23bf 6b3d f60f bf3d df9f 533d a306 183e
00000020: 60c5 bd3d c739 b43c 2dc7 8ebd b948 10bd
00000030: a791 21bd 19a9 a43b aa6b c9bd 1570 a13c
00000040: 30d4 d7bc ac58 8bbd 5882 b0bd ef81 21be
00000050: e819 86bd 5bcb b63c 7d49 d23d cfc1 bebd
00000060: 7009 033d 9f58 0d3c 1f92 9a3d 76a2 1f3c
00000070: 034e eebc f1fc 7d3d 1f0b 92bd 1025 ad3d
00000080: 5586 143e d2a9 2dbd 35f8 4bbd 02a6 9b3d
00000090: a7df e9bc f544 b2bd d373 38bc de3a 1abd
000000a0: b9d3 033e 73dc ec3c f448 9ebd 1a39 85bd
000000b0: ace6 f2bd 3339 0d3e 2d3f 043d f678 cd3d
000000c0: 9eee 55bd 8e07 57bd b9f1 b5bd c192 f4bd
000000d0: d9f7 00bd ee49 ae3d 9041 6cbd b027 a33d
000000e0: d9bb ef3c 421a aebb b5fc 82bc ac86 7cbd
000000f0: 0f86 eb3c fb5a 52bd 9c5a 813d 18a9 9ebd
00000100: d459 2e3d 5b7c 0f3d fc5b 9f3d a109 093e
00000110: 1ef5 55bd 6548 353d 3671 88bd cd6c 0cbe
00000120: 22c6 043d f9bf 6abd 3029 b43d c07b 493d
00000130: 24c5 593a 5e82 1ebe bc3c 43bd 899d 67bc
00000140: 9ad0 54bb 6265 71bd d0ea a0bd 445e 893c
00000150: 902a 63bd cb10 923c 2bed 9bbc 8d63 083e
00000160: 851f 3a3d 94d1 c73d 90ba 3dbc 30fd 463c
00000170: 5de5 703d bf4a 863c 5692 2cbb 017e 793d
00000180: 6561 a5bd bd22 43bd 13a5 9b3d e43e c2bb
00000190: 1631 a1bc 4bc9 933d 053e 21bc 4773 9abc
000001a0: 35b7 a6bd 3b85 c33c 85e0 dc3d 050f 45be
000001b0: 98d1 0f3d adcc 633d 17ae 463c e52c 5cbb
000001c0: e9f8 bfbd ff91 ce3d daa4 653d c474 a6bc
000001d0: b4e5 31bb 470b 1f3c c726 6b3d 888d 18be
000001e0: 310f 4e3c 3450 e6be 7a6c 1dbc b2b6 ff3d
000001f0: c7ad e03c d948 77bc 029a b7bd eee2 0b3d
00000200: d8c8 e83d 1072 09be fa37 083c 585c b4bd
00000210: afa9 01be 88a1 80bc e210 a2bd c36c 26bd
00000220: 5301 bf3d 399d 2a3d f55d f83d dd2e edbd
00000230: a9cc 0bbd 1b8f 63bc 0e33 713c 73ca c03d
00000240: 3e10 4fbd 5244 89bd cdbc 04be 7223 d2bb
00000250: a3c4 febd 48ed e8bd b0e9 e73d 504c 97bd
00000260: 69ce 923d 5e20 c4bd 6434 34ba f146 cd3c
00000270: d499 213d 80bd 7ebc a90c 8bbb c29e 113e
00000280: eb95 37bf 7d86 41bd 5ab9 7cbd 9439 893b
00000290: b354 a5b9 4b8e e6bd e8d3 ee3c f6c0 96bd
000002a0: 717b 09be de87 783d 6cbc d7bd 105d 5f3d
000002b0: 6c7f 02be 08e4 623d 1b34 853d 3b71 1d3d
000002c0: 3424 1ebd e9ca f0bd cdd5 6c3b 8160 ddbd
000002d0: 5b26 1c3d 4dbf 9b3d b343 983d d3ca 003e
000002e0: 1eef 4ebb b920 6bbd d808 863e a4cf 27bc
000002f0: 5384 1d3e 3753 dcbc a0b3 d7bd a7b1 033d
00000300: b955 6cbd 52c3 c23d 5ef9 d53d 04ef a53b
00000310: 4df5 993d e9af ca3d 50a1 ec3c 9eab a4bd
00000320: a536 02bf 94cf 3a3d 77d7 563d 4bbe 933d
00000330: 8998 79bb f4b5 0e3c 395f 013c c65e 843d
00000340: 199e 033e c697 02be cfd8 683c 3010 05be
00000350: e288 fcbd 0fbd 9e3d 8d06 b13d 4fde 0ebd
00000360: 0560 1e3d 5c16 9cbc 88ea b538 de28 efbb
00000370: d826 ecbc ed67 733d 87da b1bd 67ac eabc
00000380: 1ead 04bb 4c88 fa3b 3440 8abd 42dc 5bbd
00000390: ddee 353d fed5 fdbd fb12 213c 83e8 b0bd
000003a0: e77e dd3c 8ac4 f1bd e109 d33d 4cae 4f3d
000003b0: 6148 013c 7bd5 623d 62ff 443d 95eb 3d3d
000003c0: 8208 46bd 23a7 06be 54b0 6e3d 01af 6fbd
000003d0: 065a 71bd 81c1 153e 113d 3c3d 664b 853d
000003e0: 5045 633d d1ad 353d cc62 9f3c 563d d2bd
000003f0: 8ba3 ab3d 2923 88bd 96f3 be3e 43af 18bd
